rnn/rnn_regressor.pth (torch, 204837 bytes, 9 tensors)

rnn.weight_ih_l0 f4 [128, 3]
0.08375087 -0.017056562 0.052890085 0.046207666 0.0037331916 0.05822728 0.0053420286 0.024321152
-0.005326298 -0.050981026 0.026964571 0.052302096 0.060835496 -0.028848572 -0.0040727817 0.015974822
-0.0019084312 0.057554603 0.047403567 0.0033111302 0.08088059 -0.011354766 0.03210012 -0.08965196
0.0711086 -0.02682806 -0.03063731 0.0777389 -0.003542914 0.062980846 -0.052794624 0.028444713
0.047147986 -0.053567365 -0.009344198 -0.061776035 0.00081797334 0.013695315 0.049430486 -0.053176407
-0.024224091 -0.104093194 -0.066403985 -0.038555805 -0.071770474 0.021751499 -0.023491738 0.026017183
0.024468504 -0.010417669 0.022674166 -0.018704709 0.033690277 -0.027971614 -0.032591484 0.0021636912
-0.07725896 -0.061827015 -0.01744684 -0.05726782 -0.09209087 0.03893518 0.053131294 -0.06650233
-0.057979036 0.032302275 -0.023336928 -0.0245305 -0.08423177 -0.08792671 0.0095331175 -0.0326131
0.05342447 0.042428315 0.051606078 0.02205261 0.019242201 0.077308856 -0.029733332 0.0017387138
0.03615167 -0.04302761 0.04214962 0.0061807735 -0.043700173 0.019352328 -0.080729485 0.061925378
0.009517648 0.03442616 0.070504725 -0.0055138036 0.041811954 0.024373215 0.03291291 0.057030443
-0.023001792 -0.017568372 -0.04994707 -0.039222036 0.004902671 -0.018448664 0.028216252 -0.009142533
-0.037030227 0.04285117 0.016382625 0.102727525 -0.07507483 0.092041515 0.043493666 -0.02172645
-0.010184658 0.06771942 -0.06479559 0.03172555 0.06189019 -0.059489872 0.0006026881 -0.05878842
-0.08288363 0.005262459 0.054663435 -0.03897296 -0.03301884 0.029186212 -0.03594298 0.01018209
-0.005292588 -0.0025254826 0.055830702 -0.04875827 -0.026165074 0.0010688596 -0.020090535 -0.0065381727
-0.06538895 -0.030289765 0.009106583 -0.009949583 0.0049895626 -0.0322108 0.002813573 -0.04624985
-0.04239135 0.029321155 -0.08055751 0.008970631 0.004358948 0.08919229 -0.0724099 0.024786577
0.037060875 -0.07193681 -0.0073223007 -0.030245055 0.06985185 -0.02550968 0.022635082 0.05675159
0.070492625 -0.00056047004 -0.07118864 -0.021601632 0.042206984 -0.045956127 0.015167996 0.028026098
-0.012760782 -0.030153824 -0.066358455 0.0063997386 0.0029483445 0.014053759 -0.004057798 0.038408596
-0.050583847 0.031327117 0.0038834158 0.019671833 0.0026807704 0.023713786 0.09351418 -0.07033465
-0.0039468813 -0.069760725 -0.06006508 -0.014666866 -0.025871448 -0.08448276 -0.028236374 0.025955053
-0.04236028 0.008620101 -0.05520733 0.07525121 -0.027224565 0.050411925 0.05812792 -0.035351694
0.07945287 0.035209224 -0.009735681 0.017039495 0.0061782417 -0.030046731 -0.09372399 0.0076961704
-0.015780894 -0.010710518 0.025485458 -0.06456591 -0.03299647 0.06129326 -0.03133069 -0.0270721
-0.013906424 -0.022978837 -0.09579245 0.030338822 -0.03459382 0.07002384 -0.07872412 0.0057174466
-0.07952607 -0.02401743 -0.039164785 0.023152705 -0.04461101 0.01527839 -0.07485265 -0.08487825
0.031551294 0.050603688 -0.020494463 0.035025958 -0.054836717 0.1019053 -0.026570918 -0.0054958104
-0.027111785 -0.059707996 0.016137596 -0.036223594 -0.012350353 -0.045976408 -0.0033491084 -0.017298581
0.02083766 0.0069777644 0.008804331 -0.032070518 0.06211551 -0.022165451 0.0031070632 -0.025965594
00000000: 9385 ab3d 34ba 8bbc 46a3 583d 4044 3d3d
00000010: 90a8 743b ba7f 6e3d 2f0c af3b 273d c73c
00000020: 3a88 aebb 7bd1 50bd cee4 dc3c b93a 563d
00000030: a42e 793d d753 ecbc f874 85bb a1dd 823c
00000040: 5324 faba 60be 6b3d 3e2a 423d 8cff 583b
00000050: b9a4 a53d 5709 3abc 6a7b 033d 729b b7bd
00000060: 63a1 913d 85c6 dbbc 19fb fabc 9335 9f3d
00000070: 3c30 68bb 1afc 803d 2d3f 58bd e304 e93c
00000080: 3f1e 413d 7469 5bbd 6818 19bc de08 7dbd
00000090: 436d 563a 5162 603c 9f77 4a3d 81cf 59bd
000000a0: 9a71 c6bc d02e d5bd d0fe 87bd b1ec 1dbd
000000b0: 66fc 92bd 3330 b23c bf71 c0bc fd21 d53c
000000c0: 2c72 c83c dfae 2abc 2cbf b93c 9e3a 99bc
000000d0: d1fe 093d ba24 e5bc a67e 05bd b7cc 0d3b
000000e0: f239 9ebd 533e 7dbd adec 8ebc a991 6abd
000000f0: 239a bcbd 7f7a 1f3d 33a0 593d 6032 88bd
00000100: 6d7b 6dbd 644f 043d 162d bfbc 30f4 c8bc
00000110: b581 acbd eb12 b4bd cb30 1c3c 5095 05bd
00000120: 9ed3 5a3d 50c9 2d3d e560 533d ada7 b43c
00000130: d2a1 9d3c 1b54 9e3d 5193 f3bc 8ee5 e33a
00000140: c613 143d b83d 30bd 14a5 2c3d 1688 ca3b
00000150: f4fe 32bd c688 9e3c 8055 a5bd 77a5 7d3d
00000160: e9ef 1b3c 7202 0d3d c864 903d 23ad b4bb
00000170: 0343 2b3d 56aa c73c b0cf 063d c198 693d
00000180: 416e bcbc 8ceb 8fbc 4d95 4cbd 49a7 20bd
00000190: 96a6 a03b a721 97bc c525 e73c 90ca 15bc
000001a0: 02ad 17bd b584 2f3d db34 863c cf62 d23d
000001b0: d5c0 99bd 4380 bc3d 6a26 323d abfb b1bc
000001c0: 8ddd 26bc 7bb0 8a3d 8db3 84bd a6f2 013d
000001d0: 9180 7d3d a7ab 73bd b7fd 1d3a 20cc 70bd
000001e0: e5be a9bd b570 ac3b c4e6 5f3d 1ca2 1fbd
000001f0: c33e 07bd ec17 ef3c f238 13bd c8d2 263c
00000200: 726d adbb 9182 25bb bcae 643d c0b6 47bd
00000210: 2358 d6bc fa18 8c3a e894 a4bc 2b3e d6bb
00000220: a4ea 85bd 3e22 f8bc c733 153c 9303 23bc
00000230: 7c7f a33b 79ef 03bd ec63 383b 7c70 3dbd
00000240: 8da2 2dbd eb32 f03c 56fb a4bd 8ef9 123c
00000250: 82d5 8e3b 73aa b63d a44b 94bd 380d cb3c
00000260: 25cd 173d 9b53 93bd e9ef efbb 7ac4 f7bc
00000270: 7d0e 8f3d adf9 d0bc 356d b93c 5b74 683d
00000280: 705e 903d 82ec 12ba 5acb 91bd e8f5 b0bc
00000290: 3be1 2c3d 7e3c 3cbd 3083 783c fd96 e53c
000002a0: 9912 51bc 2705 f7bc f1e6 87bd e6b4 d13b
000002b0: 0339 413b bd41 663c 47f7 84bb 5552 1d3d
000002c0: 0231 4fbd dd50 003d e880 7e3b d326 a13c
000002d0: ddaf 2f3b 6a43 c23c 5d84 bf3d 9d0b 90bd
000002e0: d754 81bb b6de 8ebd cd06 76bd 4b4d 70bc
000002f0: 5cf0 d3bc 4c05 adbd f84f e7bc b19f d43c
00000300: f981 2dbd 533b 0d3c 1521 62bd 4e1d 9a3d
00000310: 0d06 dfbc bc7c 4e3d 8b17 6e3d f0cc 10bd
00000320: 30b8 a23d 8c37 103d 6882 1fbc 6996 8b3c
00000330: d972 ca3b 9024 f6bc 5df2 bfbd 2830 fc3b
00000340: ef46 81bc 2b7b 2fbc e1c6 d03c 223b 84bd
00000350: 4e27 07bd a40e 7b3d 9c54 00bd 4fc6 ddbc
00000360: c5d7 63bc 1d3e bcbc d52e c4bd 1f89 f83c
00000370: 40b2 0dbd a968 8f3d 1d3a a1bd 6b59 bb3b
00000380: 90de a2bd 34c0 c4bc 416b 20bd beaa bd3c
00000390: 09ba 36bd 3652 7a3c 594c 99bd a6d4 adbd
000003a0: ee3b 013d d045 4f3d 01e4 a7bc 6177 0f3d
000003b0: 779c 60bd bab3 d03d 41ab d9bc 3316 b4bb
000003c0: 8919 debc 5f90 74bd fe32 843c 315f 14bd
000003d0: 2359 4abc c251 3cbd b77c 5bbb c1b5 8dbc
000003e0: beb3 aa3c bba5 e43b 0a40 103c 605c 03bd
000003f0: d56c 7e3d 5294 b5bc df9f 4b3b ccb5 d4bc

rnn.weight_hh_l0 f4 [128, 128]
-0.044761103 -0.048036955 -0.0730164 0.01865267 -0.08391748 0.024887882 -0.03398457 -0.07354687
-0.022185333 0.07981277 -0.022312433 0.058028243 0.06978775 -0.032971375 -0.043676894 -0.07599952
0.0055557042 -0.08379434 -0.0116264075 -0.03533424 -0.01939676 -0.0052127093 0.056976296 -0.08552666
0.04092651 -0.010266021 0.06323039 0.040675946 -0.07859809 -0.0354889 -0.060272943 -0.0008876249
0.027914882 0.03365192 -0.023095712 -0.009263538 -0.04081134 -0.015378043 0.08027106 -0.07842832
-0.0649666 -0.037584137 -0.046999004 0.07593099 -0.05128717 -0.049747653 0.050423123 0.07046402
-0.034720626 0.021744885 -0.07641543 -0.007390678 0.07436635 -0.031025898 0.022704244 0.0026294142
-0.038614932 -0.038475394 -0.06907617 0.056548648 0.047571845 -0.07468338 -0.028459541 -0.080074616
-0.078152046 -0.062172957 -0.041125145 -0.042872775 -0.021062195 0.06146974 0.047239147 0.0063516423
0.022877447 0.0073508844 0.0029479638 -0.015769303 0.053353347 -0.08423376 0.013116762 -0.012051016
0.048958413 -0.04593051 -0.06911842 0.06296771 0.009308994 0.06546683 0.035171278 0.03913825
-0.061559886 -0.08597783 0.025884055 0.01922442 -0.03739108 0.022515766 0.04253698 0.027166076
-0.029857628 0.070019744 0.014003441 0.08092115 0.078364484 -0.08488041 -0.0019674748 0.0013303831
0.058087148 0.06850695 -0.07928171 -0.04119924 -0.06784024 -0.048766926 -0.04726067 -0.0064582005
-0.06637059 0.03295841 -0.064150274 -0.03996321 -0.012258716 -0.051230747 -0.054269515 0.028364956
-0.03579521 0.03564661 0.0011402741 -0.07390216 -0.0030970797 -0.013570294 0.07414844 0.06570368
-0.08385358 -0.062314957 -0.050046198 0.000928171 0.034627378 -0.04020728 0.08388802 0.021941394
0.028648406 0.060002334 0.08429437 0.04768548 0.032669663 -0.0070667416 -0.07635341 -0.076041736
0.01081983 -0.0716601 -0.04006138 0.08162493 0.08264134 -0.04773923 0.021436632 -0.07040432
-0.08836833 0.06249737 0.04940533 -0.025816754 0.03369771 0.018131502 0.0019051954 0.044679888
0.087165765 0.007385932 -0.03551908 0.01202473 -0.01339978 -0.06112428 -0.00574819 -0.087835506
0.005740389 0.0063415617 -0.003829211 0.05198919 0.011733443 0.084267326 0.047861867 -0.061670482
-0.03707906 -0.019558959 -0.02080299 0.034406282 0.081344 -0.0653003 -0.03651347 0.016394705
-0.015047513 0.058427863 0.056750767 0.005095333 -0.07191635 0.018749975 -0.012250878 0.0025240257
0.06719748 -0.080901094 -0.072049655 -0.0007114187 0.022206075 -0.054599818 -0.075045004 -0.042529035
-0.06258911 0.028585069 -0.04422865 0.07709468 -0.075064145 0.015276976 -0.0816902 0.057731904
-0.014778562 0.07891316 0.0018906966 0.04842543 -0.037669692 -0.010367721 -0.052646343 0.08304382
0.040163897 0.009850837 -0.08152295 -0.076276354 -0.06813292 -0.03209612 0.05157531 -0.033753555
0.00046625733 -0.07027854 0.07620808 -0.08529899 0.0833328 0.007572271 -0.07435527 -0.055945516
-0.052932795 -0.06632118 0.044777043 0.08513198 0.028172016 -0.03212727 -0.010927305 0.0827047
0.08721479 -0.009314224 0.0793811 0.06545187 -0.07000135 0.058950104 -0.051026367 -0.08267688
-0.02594266 -0.059976112 0.07960687 -0.0020685866 -0.0039180517 -0.07336978 -0.018172659 -0.018314302
00000000: 6b57 37bd 66c2 44bd 9f89 95bd 7ccd 983c
00000010: eedc abbd ace1 cb3c 6833 0bbd be9f 96bd
00000020: 04be b5bc e174 a33d 90c8 b6bc 06af 6d3d
00000030: e1ec 8e3d fe0c 07bd 8be6 32bd a3a5 9bbd
00000040: a00c b63b 5e9c abbd b07c 3ebc a3ba 10bd
00000050: f4e5 9ebc 60cf aabb fa5f 693d 9a28 afbd
00000060: 8ea2 273d d032 28bc ef7e 813d d29b 263d
00000070: 09f8 a0bd cf5c 11bd c3e0 76bd 80af 68ba
00000080: c0ad e43c 98d6 093d 3833 bdbc 18c6 17bc
00000090: cb29 27bd 30f4 7bbc 2765 a43d 079f a0bd
000000a0: 350d 85bd d3f1 19bd 0782 40bd b581 9b3d
000000b0: 7f12 52bd 32c4 4bbd 7a88 4e3d 714f 903d
000000c0: 3737 0ebd 5422 b23c b17f 9cbd 802d f2bb
000000d0: 634d 983d 062a febc 40fe b93c 4052 2c3b
000000e0: b12a 1ebd 6098 1dbd cf77 8dbd 8e9f 673d
000000f0: b2da 423d 9af3 98bd fc23 e9bc 29fe a3bd
00000100: 2e0e a0bd 12a9 7ebd d772 28bd 5d9b 2fbd
00000110: a08a acbc b2c7 7b3d d67d 413d 7021 d03b
00000120: 7c69 bb3c b0df f03b a032 413b a02e 81bc
00000130: 0a89 5a3d c082 acbd b0e7 563c a071 45bc
00000140: 9e88 483d a121 3cbd f58d 8dbd 37f5 803d
00000150: c084 183c 7913 863d c20f 103d 6e4f 203d
00000160: 3826 7cbd 2515 b0bd cc0a d43c 887c 9d3c
00000170: 6427 19bd fc72 b83c 423b 2e3d 648b de3c
00000180: fc97 f4bc 8366 8f3d b06e 653c fdb9 a53d
00000190: 8f7d a03d c8d5 adbd c0f0 00bb 4060 ae3a
000001a0: caec 6d3d 5f4d 8c3d 735e a2bd 89c0 28bd
000001b0: d3ef 8abd d4bf 47bd 6894 41bd 509f d3bb
000001c0: 4eed 87bd 66ff 063d 3861 83bd 76b0 23bd
000001d0: c8d8 48bc 55d7 51bd b649 5ebd a05d e83c
000001e0: 009e 12bd 2e02 123d 4075 953a 045a 97bd
000001f0: 60f8 4abb f055 5ebc 23db 973d a78f 863d
00000200: 6dbb abbd f83d 7fbd 3efd 4cbd 8050 733a
00000210: 70d5 0d3d 64b0 24bd 7bcd ab3d 70be b33c
00000220: 10b0 ea3c 02c5 753d 87a2 ac3d da51 433d
00000230: a0d0 053d 2090 e7bb 2d5f 9cbd c5bb 9bbd
00000240: a845 313c 88c2 92bd 6717 24bd f92a a73d
00000250: dd3f a93d 368a 43bd e09b af3c 2430 90bd
00000260: 74fa b4bd 3efd 7f3d 3e5d 4a3d a87d d3bc
00000270: 9c06 0a3d 8488 943c c0b7 f93a 4202 373d
00000280: f783 b23d b005 f23b 747c 11bd 6003 453c
00000290: c08a 5bbc 745d 7abd 505b bcbb 1ae3 b3bd
000002a0: e019 bc3b e0cc cf3b 80f3 7abb 9ef2 543d
000002b0: a03d 403c 5994 ac3d ce0a 443d 309a 7cbd
000002c0: 36e0 17bd 1c3a a0bc 086b aabc 9aed 0c3d
000002d0: af97 a63d 2abc 85bd 268f 15bd 304e 863c
000002e0: d889 76bc 0e52 6f3d 7e73 683d c0f6 a63b
000002f0: e148 93bd 8c99 993c e8b7 48bc 206a 253b
00000300: d59e 893d 79af a5bd c58e 93bd 807e 3aba
00000310: 84e9 b53c 0fa4 5fbd 32b1 99bd ed32 2ebd
00000320: b82e 80bd 3c2b ea3c 1a29 35bd d1e3 9d3d
00000330: 3bbb 99bd 484c 7a3c 314d a7bd 4a78 6c3d
00000340: c821 72bc 399d a13d 40d1 f73a be59 463d
00000350: 894b 1abd 60dd 29bc b1a3 57bd e112 aa3d
00000360: e682 243d 6865 213c 81f5 a6bd c736 9cbd
00000370: 4689 8bbd 3977 03bd a240 533d 2b41 0abd
00000380: 0074 f439 32ee 8fbd fb12 9c3d 3db1 aebd
00000390: 63aa aa3d d020 f83b 9347 98bd 2027 65bd
000003a0: 0fd0 58bd 66d3 87bd 2268 373d ad59 ae3d
000003b0: 00c9 e63c e297 03bd 7008 33bc 1561 a93d
000003c0: ab9d b23d b09a 18bc 8f92 a23d a10b 863d
000003d0: de5c 8fbd aa75 713d 0601 51bd 7f52 a9bd
000003e0: b485 d4bc 83a9 75bd ed08 a33d 2091 07bb
000003f0: 0063 80bb e542 96bd d4de 94bc e007 96bc

rnn.bias_ih_l0 f4 [128]
0.028557157 0.061308056 0.08726959 0.054728698 -0.046525557 -0.09271157 -0.010435022 -0.05544374
-0.056274083 -0.05884945 0.017316742 -0.010831046 -0.008497138 0.009117077 -0.099104956 -0.075003214
0.011363454 0.057933655 -0.03731575 0.022269914 0.04568925 -0.03483301 0.056951594 -0.00034467774
0.012483326 -0.009281832 -0.029859785 0.057775326 0.0042572943 0.032955658 -0.020127265 0.042036183
-0.018227797 0.011966767 0.090071075 0.00917645 -0.055270165 -0.067859285 0.067439914 -0.0166312
-0.05384407 0.030090416 -0.030885639 -0.0056337896 -0.011566025 -0.06699483 -0.05962738 0.079120524
-0.03762551 0.054492403 0.005529324 -0.057232097 0.03921419 0.026549004 -0.07602876 0.011942161
0.07391719 0.070820995 0.0674861 0.02454193 -0.050755057 -0.021418614 0.043882743 0.026152393
0.011919476 -0.016339988 0.042326123 -0.02577822 -0.014796353 -0.048976287 -0.11564551 0.040581986
0.080441125 0.058149286 0.045402005 0.015737016 -0.023142168 -0.054436456 -0.013302102 -0.015333536
-0.032388307 -0.022732731 0.0061707716 -0.06971972 -0.0544898 -0.07805897 0.03596282 0.02261083
-0.044052728 -0.04965689 0.07521069 0.033781245 -0.005641472 -0.049909696 0.07201538 -0.0069007273
-0.048585184 0.030396825 -0.067722544 -0.072935075 -0.054726552 0.014346634 -0.03550679 0.06015521
-0.00059678144 -0.032578148 -0.08533525 0.058181476 0.06869806 0.044054445 -0.079358436 -0.077979036
0.0055617206 0.012041077 0.07776877 -0.029668607 0.003004663 0.00700343 -0.06498782 0.07057447
0.02961186 -0.0038586096 -0.011362304 -0.03141999 -0.077365786 0.043583564 0.0028828199 -0.03849954
00000000: b3f0 e93c 281e 7b3d 66ba b23d 332b 603d
00000010: 9591 3ebd 90df bdbd a8f7 2abc fa18 63bd
00000020: a77f 66bd 1f0c 71bd d7db 8d3c b374 31bc
00000030: 9437 0bbc cb5f 153c 8af7 cabd 499b 99bd
00000040: c82d 3a3c d74b 6d3d 66d8 18bd 656f b63c
00000050: a724 3b3d 0fad 0ebd 1346 693d ddb5 b4b9
00000060: dd86 4c3c d312 18bc 829c f4bc d2a5 6c3d
00000070: c680 8b3b 83fc 063d efe1 a4bc 222e 2c3d
00000080: 7652 95bc 4210 443c 2f77 b83d d258 163c
00000090: f862 62bd cff9 8abd f01d 8a3d 283e 88bc
000000a0: 998b 5cbd 2d80 f63c e103 fdbc a79b b8bb
000000b0: 6d7f 3dbc 9634 89bd d73b 74bd f109 a23d
000000c0: 351d 1abd 6d33 5f3d 552f b53b 346c 6abd
000000d0: 0f9f 203d 4c7d d93c f7b4 9bbd 0ea9 433c
000000e0: e561 973d 990a 913d 2736 8a3d 280c c93c
000000f0: 89e4 4fbd 1776 afbc 64be 333d 8b3d d63c
00000100: e849 433c 70db 85bc 285e 2d3d d82c d3bc
00000110: 676c 72bc 5c9b 48bd 8ed7 ecbd 4c39 263d
00000120: 51be a43d f22d 6e3d 74f7 393d eaea 803c
00000130: a594 bdbc c3f8 5ebd 0ff1 59bc 8339 7bbc
00000140: 9aa9 04bd fe39 babc 2f34 ca3b 36c9 8ebd
00000150: b230 5fbd 62dd 9fbd c04d 133d 593a b93c
00000160: a270 34bd 0665 4bbd 1008 9a3d 345e 0a3d
00000170: 19dc b8bb 1c6e 4cbd cd7c 933d 7f1f e2bb
00000180: 4201 47bd c302 f93c 1eb2 8abd fc5e 95bd
00000190: f328 60bd 250e 6b3c 916f 11bd 4f65 763d
000001a0: 5371 1cba aa70 05bd 3fc4 aebd b34f 6e3d
000001b0: 92b1 8c3d 6f72 343d ad86 a2bd 79b3 9fbd
000001c0: 183f b63b f047 453c 3c45 9f3d 940b f3bc
000001d0: e1e9 443b 077d e53b 5618 85bd 5989 903d
000001e0: 9294 f23c bae0 7cbb f528 3abc 3fb2 00bd
000001f0: f471 9ebd ae84 323d b1ed 3c3b b2b1 1dbd

rnn.bias_hh_l0 f4 [128]
-0.0442012 0.047848966 0.09881839 0.017883394 -0.026377568 0.05458597 -0.04967945 -0.04632847
-0.057966422 0.050450314 -0.03815429 -0.076791205 -0.020318761 -0.060880758 0.051986627 0.008172112
0.013349348 0.10006019 -0.022501182 0.048144516 -0.068133034 -0.0484226 -0.03861552 -0.078599416
0.06556364 0.009114097 -0.014396292 0.0015690596 0.03668522 0.064905666 -0.036784634 0.041756503
-0.07777748 0.030985665 -0.021356873 -0.07082241 -0.027640732 -0.0436763 -0.03583576 -0.035701223
0.00011050276 -0.050790202 -0.034373943 -0.029222604 0.05329097 0.047272105 -0.027570155 0.013766046
0.07116019 -0.016078807 -0.06892289 -0.020907618 -0.051869042 0.080203496 -0.031049157 -0.0881874
-0.02701295 -0.057541925 0.03595591 -0.0052555166 -0.05055901 -0.02167469 -0.014744309 -0.06440436
-0.016901575 0.015455473 -0.061608348 0.018911049 0.06528054 -0.081533 0.031179946 -0.08894251
0.048010353 0.07265814 0.065592855 0.010469372 -0.044235364 0.08704437 0.061638664 0.04629954
0.083255395 0.013057181 -0.057310835 -1.05600875e-05 0.065654024 0.029515369 -0.10091468 -0.07138703
0.0031074383 -0.091817245 0.025044763 0.059718773 -0.006525057 -0.015287583 -0.062338937 0.06897837
-0.03988792 -0.052034557 0.052481793 -0.015094302 0.03650776 -0.046413112 -0.060521718 -0.046840385
0.03787958 0.11536646 0.06919149 0.03191763 -0.024467014 -0.086124204 -0.06899988 -0.06554899
-0.0022695109 -0.05002276 0.031812444 0.0766061 -0.003391369 -0.0053495574 -0.08820529 0.004778048
0.023479953 0.052522637 -0.033114113 -0.030900847 -0.047969867 0.07858527 0.032292675 0.07469324
00000000: 510c 35bd 47fd 433d 4c61 ca3d 3280 923c
00000010: c515 d8bc 8a95 5f3d ae7c 4bbd ecc2 3dbd
00000020: 336e 6dbd fda4 4e3d ac47 1cbd b544 9dbd
00000030: 8873 a6bc 1a5e 79bd eeef 543d 52e4 053c
00000040: 39b7 5a3c 5bec cc3d 6654 b8bc 2f33 453d
00000050: 5589 8bbd c756 46bd 4f2b 1ebd bbf8 a0bd
00000060: 3b46 863d 4b53 153c 6dde 6bbc e7a8 cd3a
00000070: 3e43 163d 43ed 843d 7cab 16bd de08 2b3d
00000080: cd49 9fbd a6d5 fd3c 9cf4 aebc 570b 91bd
00000090: d16e e2bc ece5 32bd 85c8 12bd 723b 12bd
000000a0: b8bd e738 6309 50bd b1cb 0cbd 3e64 efbc
000000b0: a247 5a3d 65a0 413d ceda e1bc fb8a 613c
000000c0: 6fbc 913d b4b7 83bc 7227 8dbd 7446 abbc
000000d0: a274 54bd bb41 a43d cd5a febc 989b b4bd
000000e0: 434a ddbc 15b1 6bbd 8146 133d 7836 acbb
000000f0: f716 4fbd 1f8f b1bc 1d92 71bc 6fe6 83bd
00000100: 2c75 8abc f438 7d3c 0959 7cbd 58eb 9a3c
00000110: ceb1 853d c6fa a6bd 166d ff3c 7e27 b6bd
00000120: 81a6 443d cacd 943d 8c55 863d bb87 2b3c
00000130: 2430 35bd 5244 b23d d378 7c3d 96a4 3d3d
00000140: ce81 aa3d c9ed 553c c4be 6abd 3b2b 31b7
00000150: 9e75 863d 37ca f13c 5bac cebd 5d33 92bd
00000160: 2aa6 4b3b ae0a bcbd ad2a cd3c ac9b 743d
00000170: 25d0 d5bb c578 7abc 1d57 7fbd 8844 8d3d
00000180: 8461 23bd 3022 55bd 26f7 563d 174e 77bc
00000190: 2989 153d ad1b 3ebd 9fe5 77bd b4db 3fbd
000001a0: 9e27 1b3d 4045 ec3d 45b4 8d3d 10bc 023d
000001b0: 0c6f c8bc e361 b0bd cf4f 8dbd 8d3e 86bd
000001c0: 13bc 14bb aae4 4cbd c44d 023d a9e3 9c3d
000001d0: bb41 5ebb 574b afbb faa4 b4bd 2c91 9c3b
000001e0: 0859 c03c fa21 573d aaa2 07bd c623 fdbc
000001f0: 0d7c 44bd 50f1 a03d 5345 043d c5f8 983d

rnn.weight_ih_l1 f4 [128, 128]
0.0006000265 -0.05749775 -0.04051217 -0.072069384 -0.04032619 0.026960434 0.021374533 -0.042101882
-0.08244009 -0.055925127 0.07496065 -0.001915021 -0.08167691 0.05272279 -0.028546307 0.07177069
0.070327975 -0.060516153 -0.066998996 0.055627145 -0.023059314 -0.07760491 -0.024395559 0.06830715
0.03946584 -0.091285214 0.013057735 -0.0012076957 -0.0062499065 -0.035256226 -0.07839656 0.015500492
-0.016996207 0.017204646 0.019215401 0.014666231 0.084393255 0.08190917 -0.04889886 -0.0070544286
-0.010334214 -0.04858704 -0.010650403 0.051205333 0.040891252 -0.0514472 -0.055853453 -0.036741443
0.06914994 0.028646708 0.049349878 -0.024316678 0.063498035 0.062198773 0.07548636 0.085304864
0.071233094 -0.07411163 0.030438261 0.0121724745 0.06926052 0.089310125 -0.027875422 -0.07136236
0.027856786 -0.010301984 -0.03303212 -0.054197446 -0.0022458422 -0.07316653 -0.08098499 0.036910184
-0.045751594 -0.04924708 0.057000734 0.026474556 -0.06064046 -0.051951203 -0.06671946 -0.073980495
0.03801368 -0.020169104 0.08463522 -0.08674126 -0.043844946 0.07753302 -0.033125248 0.0559797
0.0314656 0.01180042 -0.089808054 -0.08559106 0.066135935 0.042903867 -0.087407194 -0.09239266
-0.04145002 0.08164861 0.004114885 -0.021833232 -0.042938065 0.0813286 0.02647811 0.05494018
0.00039165944 0.027420102 0.018294837 -0.046249047 0.036076095 -0.08729663 0.029933488 0.036145207
0.06234494 -0.0536127 0.0364601 -0.06169377 0.03846844 -0.044202954 -0.064381585 0.020587599
0.08302688 -0.034628283 0.024742085 0.027011694 -0.036549304 -0.08321971 -0.098142385 -0.07087368
0.026582725 0.034351166 -0.08129979 0.07493765 0.07546651 -0.081827946 -0.07463109 0.06383054
0.006220381 0.03482927 -0.027400892 0.00991607 0.040568605 0.048945032 -0.06826229 0.082853675
-0.029053435 0.019109555 -0.0003904442 -0.060416695 -0.009140331 -0.04076695 -0.060162608 -0.04864448
-0.02722508 0.040564522 -0.035819735 -0.055836063 0.09045749 -0.047112443 -0.03481865 0.028218536
-0.020551208 -0.022183757 -0.082651906 -0.069577 -0.06073311 0.08423731 -0.00036860033 0.03229362
-0.041566897 0.053315498 0.024838047 0.059928987 -0.038323704 0.0769264 -0.03336781 0.085079245
0.021773329 0.0001825928 -0.07178869 -0.053908978 -0.0817445 -0.054027278 0.06578068 0.008568614
-0.008036674 0.08131873 -0.06889113 0.079079084 0.054270558 -0.03295844 -0.066933766 0.020656792
0.09671011 -0.074627705 0.07466099 -0.023682749 0.027217247 0.043483686 0.0075858235 0.011620359
0.027344238 -0.008095631 0.04294964 0.07105175 -0.0043766755 -0.046343617 -0.026890066 -0.094716474
0.053312894 0.039599605 0.08822978 -0.041335046 0.05303265 -0.04716731 0.0017066076 0.043874577
0.066698276 0.019762922 -0.06391398 -0.06413684 0.03714387 0.015585182 -0.07678426 -0.049160447
-0.052564476 0.0449235 -0.03468423 -0.07176616 0.036345486 0.09319326 0.08922156 0.028296823
-0.019464558 0.07509419 0.008232972 -0.06512917 -0.030815639 -0.022977619 0.07590218 0.041058615
-0.000100465804 0.020603145 -0.00689301 -0.017877797 -0.025519129 0.05764481 0.05278353 -0.043808762
0.045238566 0.037260223 -0.013765179 0.04591734 0.0054884837 0.027939415 0.0023129084 -0.08260419
00000000: 194b 1d3a c382 6bbd 17f0 25bd 1d99 93bd
00000010: 132d 25bd 21dc dc3c a519 af3c 0673 2cbd
00000020: 5ad6 a8bd bf11 65bd f884 993d 7101 fbba
00000030: 3946 a7bd daf3 573d f2d9 e9bc 83fc 923d
00000040: 1d08 903d c9df 77bd c536 89bd 4ad9 633d
00000050: e3e6 bcbc 53ef 9ebd 32d9 c7bc 9ee4 8b3d
00000060: efa6 213d bef3 babd 1cf0 553c 8b4b 9eba
00000070: 04cc ccbb d568 10bd 608e a0bd c7f5 7d3c
00000080: a13b 8bbc c2f0 8c3c 9e69 9d3c a24a 703c
00000090: 5fd6 ac3d ffbf a73d 2c4a 48bd d628 e7bb
000000a0: d650 29bc 3403 47bd 077f 2ebc afbc 513d
000000b0: 967d 273d 4dba 52bd 97c6 64bd 327e 16bd
000000c0: 7c9e 8d3d 80ac ea3c 1923 4a3d c533 c7bc
000000d0: 420b 823d 24c4 7e3d 9898 9a3d 51b4 ae3d
000000e0: a8e2 913d d7c7 97bd a959 f93c 0f6f 473c
000000f0: 76d8 8d3d 3ae8 b63d ff5a e4bc 6e26 92bd
00000100: ea33 e43c a7c9 28bc b04c 07bd 24fe 5dbd
00000110: fb2e 13bb 55d8 95bd 75db a5bd 222f 173d
00000120: 0666 3bbd 4eb7 49bd 9a79 693d 2be1 d83c
00000130: 2262 78bd c9ca 54bd 36a4 88bd 1683 97bd
00000140: 3cb4 1b3d ad39 a5bc 3b55 ad3d 67a5 b1bd
00000150: c296 33bd a2c9 9e3d 57ae 07bd f84a 653d
00000160: 13e2 003d 8c56 413c 49ed b7bd 5e4a afbd
00000170: 4772 873d f7bb 2f3d 8b02 b3bd 5d38 bdbd
00000180: 7fc7 29bd 6337 a73d 28d6 863b 9bdb b2bc
00000190: d3df 2fbd 9c8f a63d 9fe8 d83c f408 613d
000001a0: a457 cd39 1fa0 e03c 0edf 953c a46f 3dbd
000001b0: 87c4 133d 93c8 b2bd 1337 f53c ff0c 143d
000001c0: 685d 7f3d fe98 5bbd 3057 153d 9bb2 7cbd
000001d0: 1591 1d3d 280e 35bd 7eda 83bd 53a7 a83c
000001e0: ff09 aa3d 63d6 0dbd eaaf ca3c a147 dd3c
000001f0: b9b4 15bd 186f aabd e0fe c8bd 3826 91bd
00000200: 04c4 d93c cfb3 0c3d 8180 a6bd e978 993d
00000210: 308e 9a3d 6995 a7bd 2fd8 98bd 96b9 823d
00000220: 56d4 cb3b 23a9 0e3d d677 e0bc 0377 223c
00000230: 442b 263d 967a 483d 19cd 8bbd 30af a93d
00000240: 7801 eebc a48b 9c3c 89b4 ccb9 7f77 77bd
00000250: 54c1 15bc 3ffb 26bd 116d 76bd 6f3f 47bd
00000260: 2207 dfbc fc26 263d b7b7 12bd 5bb4 64bd
00000270: c741 b93d faf8 40bd 009e 0ebd 8f2a e73c
00000280: 025b a8bc b6ba b5bc 6745 a9bd 637e 8ebd
00000290: 48c3 78bd 9c84 ac3d b340 c1b9 5146 043d
000002a0: 0d42 2abd 5a61 5a3d 2979 cb3c 1978 753d
000002b0: 51f9 1cbd 978b 9d3d afac 08bd 073e ae3d
000002c0: fb5d b23c 6276 3f39 f305 93bd a9cf 5cbd
000002d0: a969 a7bd b54b 5dbd 05b8 863d 5f63 0c3c
000002e0: 41ac 03bc 6f8a a63d cb16 8dbd 37f4 a13d
000002f0: ce4a 5e3d 6eff 06bd 9214 89bd 6f38 a93c
00000300: f30f c63d 69d6 98bd dce7 983d 5302 c2bc
00000310: b4f6 de3c f31b 323d 8092 f83b 5163 3e3c
00000320: 0601 e03c 8aa3 04bc f6eb 2f3d 9483 913d
00000330: 376a 8fbb ced2 3dbd 8e48 dcbc b6fa c1bd
00000340: 9f5e 5a3d 3233 223d d1b1 b43d f04e 29bd
00000350: c438 593d 8232 41bd 40b0 df3a d4b5 333d
00000360: 1b99 883d dae5 a13c 55e5 82bd 2d5a 83bd
00000370: 2c24 183d fe58 7f3c 1141 9dbd 775c 49bd
00000380: d94d 57bd b401 383d 0d11 0ebd 23fa 92bd
00000390: 01df 143d 1cdc be3d cbb9 b63d bdce e73c
000003a0: 2374 9fbc fcca 993d 96e3 063c 7162 85bd
000003b0: 1471 fcbc 8f3b bcbc 9a72 9b3d 142d 283d
000003c0: 2bb1 d2b8 edc7 a83c c2de e1bb 7574 92bc
000003d0: 7e0d d1bc f71c 6c3d 8b33 583d d170 33bd
000003e0: 134c 393d 2d9e 183d 5887 61bc d213 3c3d
000003f0: bdd8 b33b 33e1 e43c 2a94 173b 632c a9bd

rnn.weight_hh_l1 f4 [128, 128]
-0.074566856 0.07786953 -0.04504279 0.020517476 -0.03870425 0.027357668 0.075750165 0.050522886
-0.0090381205 -0.053243734 -0.005781777 -0.084291324 -0.045958597 -0.073263146 -0.03741186 0.015629642
-0.087682314 -0.036033552 0.057040893 0.077137716 -0.00800214 0.062132142 0.01101926 -0.0012397841
-0.006529413 -0.07495346 0.0010277331 0.04210063 0.014701888 0.07150789 -0.032425214 0.07038238
0.012826495 -0.01825773 -0.02674717 -0.014165811 0.07003053 -0.06766692 -0.036781617 0.07179084
0.068873055 0.053185426 -0.044491287 0.001379706 -0.07642733 0.07292778 -0.034371417 0.062108763
-0.069416 -0.018040366 -0.07720319 -0.01769913 -0.07246205 0.04446491 0.04196576 0.02047503
0.044083737 0.07555934 -0.006622471 0.040960006 -0.035619006 0.06615584 0.03225921 0.030426182
-0.04897338 -0.066430956 0.08341708 0.02051308 -0.013523057 0.0059235916 0.06386971 0.04269395
0.084979974 0.031422585 0.004615195 -0.028015137 -0.03322514 -0.040271893 0.0026158318 0.022537217
-0.05460789 -0.070631936 0.07807497 0.048337437 -0.020364568 0.058992602 0.032186106 -0.06012865
0.028230034 0.04717297 -0.004329264 0.04487423 -0.046907768 -0.00380826 0.051908992 0.051039122
-0.031425692 -0.026298001 -0.06446509 0.06370527 -0.019332282 -0.054949734 0.060628466 -0.018344164
-0.020180382 0.081361316 -0.08718458 -0.059430838 -0.07177684 -0.056205507 -0.017626718 0.038907878
-0.06420407 0.0839488 -0.043759577 0.045179076 -0.0222295 0.025898606 -0.01579006 0.06336994
-0.04604244 -0.027123552 -0.040402915 -0.041008484 -0.05806218 -0.0703402 0.05884128 0.03754311
-0.066265985 0.015649833 0.08451017 -0.0014980882 0.059784256 0.0061192364 0.009420641 0.008519508
-0.025387883 0.030239291 -0.03393678 -0.011031851 -0.046144 0.0016585067 -0.023702838 -0.008872867
0.016861089 0.03180612 -0.046099138 0.019720703 -0.0730272 -0.05190845 0.004159726 0.07494851
-0.0016572997 0.04120832 0.06781616 0.0049401894 -0.045514707 -0.03089011 0.05186575 0.031693302
-0.008356087 0.021471202 0.017284788 -0.008024484 0.08612793 0.025473922 0.08278004 0.07922944
0.0115069 -0.01527743 -0.002749145 -0.07478802 0.0750797 0.018472098 -0.030397244 0.042508222
-0.038244154 -0.04379032 0.015809484 0.009256564 0.034433983 -0.04168593 -0.03370138 -0.08664049
-0.019331917 0.0740039 0.052409045 -0.040580988 0.04195852 -0.0018247291 -4.195422e-05 -0.0413115
0.074968986 0.0809911 0.08332359 0.004194811 -0.017103694 0.0021676123 -0.008833639 0.04664392
-0.036490604 0.07448993 0.016047373 0.043166183 0.0038163736 0.04663267 0.033082157 -0.05370228
-0.03401198 0.01426255 0.057659872 -0.070089474 0.05041162 -0.06713565 0.048820846 0.07437394
-0.08723313 -0.058750503 -0.05797912 0.013913684 -0.061404787 -0.0020618662 0.016775101 0.0808358
0.0787301 0.0127703175 0.04010237 0.038860746 0.04943029 -0.04974627 -0.048394077 0.012438133
0.068186484 -0.0063256174 -0.057055093 -0.057226505 0.041482218 0.066889115 0.06716966 0.047616683
-0.050851636 -0.08086641 -0.07403901 0.05583971 -0.056698266 0.016916879 -0.015415125 0.0638128
0.0012914091 0.06727513 -0.031803325 -0.0683519 0.07820036 -0.023321867 0.043750994 -0.025128119
00000000: 82b6 98bd 0f7a 9f3d ca7e 38bd 4414 a83c
00000010: 5988 1ebd 301d e03c e722 9b3d 16f1 4e3d
00000020: a014 14bc 1a16 5abd 1075 bdbb eea0 acbd
00000030: 153f 3cbd fd0a 96bd 2e3d 19bd bc09 803c
00000040: c992 b3bd eb97 13bd b6a3 693d 61fa 9d3d
00000050: 681b 03bc 467e 7e3d 208a 343c 4080 a2ba
00000060: b0f4 d5bb 3381 99bd 00b5 863a b671 2c3d
00000070: 30e0 703c bb72 923d 4dd0 04bd a324 903d
00000080: 3826 523c 3c91 95bc e21c dbbc b817 68bc
00000090: 2b6c 8f3d f494 8abd 52a8 16bd 1307 933d
000000a0: 510d 8d3d f6d8 593d 7f3c 36bd 40d7 b43a
000000b0: ef85 9cbd 295b 953d 0bc9 0cbd c265 7e3d
000000c0: fa29 8ebd 64c9 93bc b51c 9ebd c4fd 90bc
000000d0: fc66 94bd d620 363d 4ae4 2b3d 40bb a73c
000000e0: 2691 343d dbbe 9a3d 5001 d9bb aec5 273d
000000f0: 3ce5 11bd b77c 873d 3c22 043d 5440 f93c
00000100: 5098 48bd f40c 88bd 93d6 aa3d 0c0b a83c
00000110: d08f 5dbc b01a c23b 1fce 823d dadf 2e3d
00000120: fb09 ae3d f8b4 003d 103b 973b 0080 e5bc
00000130: 1617 08bd 24f4 24bd 606e 2b3b f89f b83c
00000140: 86ac 5fbd 7aa7 90bd c5e5 9f3d 7afd 453d
00000150: 98d3 a6bc 3aa2 713d 94d5 033d 7649 76bd
00000160: ac42 e73c 7238 413d 80dc 8dbb 0ace 373d
00000170: 5c22 40bd 0094 79bb 869e 543d 660e 513d
00000180: 3ab8 00bd e86e d7bc 4606 84bd e977 823d
00000190: bc5e 9ebc f912 61bd 8e55 783d 8046 96bc
000001a0: 5451 a5bc c3a0 a63d d48d b2bd c06d 73bd
000001b0: bcff 92bd bf37 66bd e865 90bc de5d 1f3d
000001c0: 6c7d 83bd 59ed ab3d 3e3d 33bd b20d 393d
000001d0: a41a b6bc 5029 d43c 285a 81bc 19c8 813d
000001e0: ff96 3cbd 3632 debc 877d 25bd 83f8 27bd
000001f0: 9cd2 6dbd 860e 90bd 8e03 713d cec6 193d
00000200: 76b6 87bd 1434 803c ab13 ad3d 805b c4ba
00000210: 56e0 743d e083 c83b 0859 1a3c 6895 0b3c
00000220: 40fa cfbc 64b8 f73c 4b01 0bbd f0be 34bc
00000230: 7e01 3dbd 4062 d93a 742c c2bc 805f 11bc
00000240: 4420 8a3c 2247 023d 73d2 3cbd 508d a13c
00000250: 498f 95bd f49d 54bd 504e 883b 9b7e 993d
00000260: c039 d9ba 0eca 283d 33e3 8a3d 50e1 a13b
00000270: a16d 3abd 420d fdbc 2e71 543d d6d0 013d
00000280: f8e7 08bc 60e4 af3c d498 8d3c 2079 03bc
00000290: d763 b03d b0ae d03c 9588 a93d 0b43 a23d
000002a0: 7087 3c3c 304e 7abc 002b 34bb 762a 99bd
000002b0: 63c3 993d cc52 973c a403 f9bc 1a1d 2e3d
000002c0: e7a5 1cbd 7b5d 33bd e482 813c d8a8 173c
000002d0: a60a 0d3d debe 2abd 750a 0abd 9270 b1bd
000002e0: f85d 9ebc 5b8f 973d deaa 563d 4038 26bd
000002f0: b2dc 2b3d c02b efba 00f8 2fb8 3f36 29bd
00000300: 5789 993d a9de a53d 8fa5 aa3d a074 893b
00000310: 0c1d 8cbc 800e 0e3b f8ba 10bc b20d 3f3d
00000320: 2c77 15bd 2d8e 983d c875 833c 06cf 303d
00000330: 201c 7a3b e601 3f3d 2881 073d ecf6 5bbd
00000340: 2550 0bbd 78ad 693c c22c 6c3d 128b 8fbd
00000350: 6a7c 4e3d 6a7e 89bd 5ef8 473d 5d51 983d
00000360: 49a7 b2bd 5ea4 70bd 847b 6dbd 38f6 633c
00000370: 9683 7bbd 6020 07bb f06b 893c 3d8d a53d
00000380: 3f3d a13d 983a 513c 6242 243d 722c 1f3d
00000390: 6a77 4a3d bfc2 4bbd de38 46bd 50c9 4b3c
000003a0: 5ba5 8b3d 2047 cfbb 9ab2 69bd 5766 6abd
000003b0: 42e9 293d 29fd 883d 3f90 893d b609 433d
000003c0: ce49 50bd 4a9d a5bd c4a1 97bd 2eb8 643d
000003d0: 713c 68bd 4495 8a3c b88f 7cbc 49b0 823d
000003e0: 8044 a93a 8bc7 893d 3444 02bd 15fc 8bbd
000003f0: 8327 a03d 800d bfbc 3e34 333d 7cd9 cdbc

rnn.bias_ih_l1 f4 [128]
-0.026137026 -0.06253628 -0.056086805 -0.010042491 -0.0028836655 -0.04490562 -0.0091496045 -0.029890426
0.0656416 0.035280272 0.042117555 -0.0034487026 0.0059984936 -0.06432433 0.009113701 0.019860493
-0.075059175 -0.004821293 -0.028010152 0.028060718 -0.010485433 0.05758261 -0.06935353 -0.01697872
-0.065038756 0.009997647 0.046728455 0.08130225 -0.012741503 -0.03845754 -0.009146766 0.019860703
0.029616766 0.057937972 0.05111735 0.015168144 0.027315414 -0.06785899 -0.016794365 -0.049934514
-0.05922525 -0.06491256 0.037413508 0.012045223 0.061638117 0.0076425658 -0.07128606 0.00019892883
0.030053368 0.00111902 0.016627066 0.008770708 -0.074161865 -0.023383506 0.03588967 0.0020932695
-0.0017910909 -0.044585675 -0.031569183 0.039223228 0.023377912 0.010756251 -0.016856378 -0.06484297
0.08028499 -0.07905779 0.0718643 0.060568612 -0.076578125 0.013363096 -0.031343456 -0.05192085
0.009131217 0.04560015 -0.07756166 0.01278945 0.08262093 0.078071795 -0.07367121 -0.016043004
-0.008294899 -0.040692955 0.076426335 -0.00012018829 -0.024791457 0.08163658 -0.06869341 0.009744465
-0.0050660176 -0.043687347 0.039707266 -0.01383778 0.07352293 -0.08030289 0.0011083988 -0.0010232466
-0.06813962 -0.038719807 -0.037998416 0.039083425 -0.03385627 0.049850132 0.085817724 0.03745471
0.0686027 -0.08543863 -0.049304828 0.040843047 -0.052583907 0.01911154 -0.0352035 -0.08083663
-0.03519246 0.065809146 -0.0366489 0.07819088 0.02710995 -0.008362353 0.07718824 -0.028777737
-0.0383872 0.013531279 -0.0064245877 0.0185508 0.027210789 -0.006513055 -0.062161062 0.05456241
00000000: 511d d6bc 0513 80bd 47bb 65bd 4389 24bc
00000010: e1fb 3cbb f5ee 37bd 39e8 15bc c4dc f4bc
00000020: 1a6f 863d 0c82 103d 7583 2c3d a103 62bb
00000030: 038f c43b 79bc 83bd a251 153c 79b2 a23c
00000040: a0b8 99bd f0fb 9dbb 8c75 e5bc 97df e53c
00000050: 18cb 2bbc bedb 6b3d 3909 8ebd f516 8bbc
00000060: 0a33 85bd 2ccd 233c 5666 3f3d cb81 a63d
00000070: bdc1 50bc a785 1dbd 51dc 15bc eab2 a23c
00000080: dc9e f23c 5e50 6d3d 6d60 513d cf83 783c
00000090: 93c4 df3c a7f9 8abd 5694 89bc 2288 4cbd
000000a0: 2d96 72bd e0f0 84bd e83e 193d 5459 453c
000000b0: 4078 7c3d 7d6e fa3b 6dfe 91bd 8d97 5039
000000c0: 7b32 f63c 15ac 923a 7c35 883c 04b3 0f3c
000000d0: 2de2 97bd c48e bfbc 0c01 133d 3c2f 093b
000000e0: 0ac3 eaba 789f 36bd b04e 01bd 89a8 203d
000000f0: 0983 bf3c fd3a 303c 6316 8abc 64cc 84bd
00000100: 756c a43d 0de9 a1bd 972d 933d cb16 783d
00000110: fed4 9cbd e3f0 5a3c ff61 00bd f5aa 54bd
00000120: 1a9b 153c 39c7 3a3d a6d8 9ebd d78a 513c
00000130: 2a35 a93d 1be4 9f3d eee0 96bd 9e6c 83bc
00000140: 54e7 07bc a8ad 26bd 6985 9c3d 990d fcb8
00000150: 7417 cbbc 1431 a73d 21af 8cbd 40a7 1f3c
00000160: d600 a6bb 81f1 32bd 16a4 223d dbb7 62bc
00000170: 3193 963d d775 a4bd b147 913a 751e 86ba
00000180: c98c 8bbd a998 1ebd 3aa4 1bbd f115 203d
00000190: dfac 0abd a72f 4c3d 34c1 af3d 1c6a 193d
000001a0: 937f 8c3d 73fa aebd dcf3 49bd 0a4b 273d
000001b0: 3962 57bd ce8f 9c3c 8c31 10bd ad8d a5bd
000001c0: f825 10bd f2c6 863d 281d 16bd 8a22 a03d
000001d0: b015 de3c 4002 09bc de14 9e3d 4abf ebbc
000001e0: e63b 1dbd 4cb2 5d3c 5985 d2bb d9f7 973c
000001f0: 29e9 de3c 776b d5bb 999c 7ebd d57c 5f3d

rnn.bias_hh_l1 f4 [128]
-0.014833688 -0.062919125 -0.0055451626 -0.046519738 0.016844558 -0.019049112 0.07925858 0.06489561
-0.05489468 -0.034982856 0.024938034 0.04314474 0.07311046 -0.040782943 0.05357455 0.037878994
0.07455047 -0.00442323 -0.03647658 0.006137328 -0.07256619 0.010034871 0.0868218 0.058623586
0.016117765 -0.012807241 -0.03364536 0.027436296 -0.08368419 -0.004314055 -0.00434079 -0.051695023
0.024715602 0.024267511 0.0053070933 0.061956983 -0.06477251 0.051507335 -0.028376743 0.08065702
-0.044935975 0.00040314483 0.0132038165 0.013495538 -0.066327296 0.011554464 -0.033463735 -0.07324104
-0.071603 -0.06049089 -0.057121716 -0.09102316 0.047375645 0.04433155 0.05653155 -0.004511739
-0.07815075 -0.057954937 -0.010379607 0.06732087 -0.06827026 0.0608874 -0.03493116 0.059620813
-0.03265168 0.050210945 0.028329993 -0.07165662 -0.08837718 0.050064024 -0.046280656 0.088682234
0.07145614 -0.083949804 0.007784514 -0.025307786 -0.03713178 -0.039686188 0.0060823807 0.056912947
0.041001085 0.031124638 -0.08502092 -0.044699267 0.005526081 -0.0011746729 -0.0053124754 -0.063675515
-0.028008986 0.023079645 -0.03818576 -0.025484044 -0.06689131 -0.049441647 0.09111707 0.048151027
0.029003667 -0.030741299 -0.01979924 -0.021948468 0.07798617 -0.0806513 0.07252166 -0.026256122
-0.056511622 0.055465937 -0.08329446 -0.06326532 -0.024764812 0.044604413 0.019339101 -0.03384344
0.0128883 0.011042383 0.033658173 0.05093873 -0.06769069 0.07103876 -0.028349208 0.06561409
0.04173799 0.04181478 0.052037727 0.07221468 0.048799027 0.077575356 -0.045864858 -0.031248571
00000000: ff08 73bc bedb 80bd 32b4 b5bb 7b8b 3ebd
00000010: 99fd 893c e20c 9cbc 5352 a23d fde7 843d
00000020: 3ed9 60bd 2f4a 0fbd d94a cc3c 8ab8 303d
00000030: f0ba 953d 040c 27bd fd70 5b3d 0127 1b3d
00000040: ebad 983d bef0 90bb 7768 15bd a41b c93b
00000050: 959d 94bd 4d69 243c a1cf b13d 491f 703d
00000060: 6709 843c 76d5 51bc b8cf 09bd 15c2 e03c
00000070: 9e62 abbd eb5c 8dbb 303d 8ebb 29be 53bd
00000080: 6078 ca3c a9cc c63c 20e7 ad3b 9bc6 7d3d
00000090: 73a7 84bd 5bf9 523d 5876 e8bc 822f a53d
000000a0: c90e 38bd 2f5d d339 d254 583c 641c 5d3c
000000b0: 9bd6 87bd ef4e 3d3c 4511 09bd 66ff 95bd
000000c0: 98a4 92bd 4cc5 77bd 76f8 69bd 5a6a babd
000000d0: f70c 423d 0095 353d a08d 673d 36d7 93bb
000000e0: 800d a0bd 2862 6dbd 3a0f 2abc 86df 893d
000000f0: 47d1 8bbd 1165 793d fa13 0fbd f434 743d
00000100: c5bd 05bd fea9 4d3d 4d14 e83c b5c0 92bd
00000110: 18ff b4bd ef0f 4d3d c990 3dbd 089f b53d
00000120: 9957 923d e0ed abbd 3d15 ff3b 4652 cfbc
00000130: 7e17 18bd fc8d 22bd b54e c73b 8d1d 693d
00000140: c1f0 273d 19f9 fe3c 731f aebd 9416 37bd
00000150: 2114 b53b 7bf7 99ba 4614 aebb 4f68 82bd
00000160: 1a73 e5bc 8611 bd3c ac68 1cbd eac3 d0bc
00000170: 50fe 88bd 5383 4abd 969b ba3d 033a 453d
00000180: 1999 ed3c 2dd5 fbbc 0432 a2bc 46cd b3bc
00000190: 37b7 9f3d 822c a5bd 3c86 943d 1417 d7bc
000001a0: bb78 67bd 4030 633d 4996 aabd 4091 81bd
000001b0: 93df cabc 1eb3 363d 096d 9e3c 6b9f 0abd
000001c0: 7329 533c 1ceb 343c 27dd 093d 21a5 503d
000001d0: 6ba1 8abd c57c 913d 993c e8bc ae60 863d
000001e0: 74f5 2a3d fa45 2b3d 8325 553d 4ae5 933d
000001f0: 7de1 473d d4df 9e3d cadc 3bbd 01fd ffbc

fc.weight f4 [1, 128]
-0.041073002 -0.0011225594 0.056164507 0.021259686 0.021692257 0.050337836 -0.012605488 0.03087371
0.03686725 -0.005745851 -0.008035325 -0.0050282334 -0.02841935 -0.058016516 0.07122737 -0.0037709814
0.049825866 -0.058584858 -0.00019697243 0.072444536 -0.057133954 0.042229168 -0.04285082 0.020193106
-0.0028242623 -0.0039828303 0.021850357 0.06765474 0.0071720793 0.044792276 -0.0030369528 -0.0670676
0.0060337973 0.066281654 0.046182215 -0.0004067169 0.07191027 -0.029229088 -0.07611835 0.016136233
-0.022341399 -0.04392502 -0.014697834 0.04184694 -0.046621762 0.018609064 -0.004744839 -0.0034032543
0.035107363 -0.051300153 -0.06566079 0.07486986 -0.03049792 -0.03977961 -0.05247541 -0.021263415
0.006480481 0.050104164 -0.04320329 0.0036167384 -0.08139223 0.0334106 0.054585896 0.06174655
-0.0001397256 -0.030785225 0.051301222 -0.00078875513 0.047600202 0.008977412 -0.0026792104 0.00023327116
-0.06451168 0.00013223801 0.02740495 -0.0002783624 -0.049710132 -0.05642429 -0.03567607 -0.00010842671
-0.028727826 0.013184023 0.021161597 -0.011181709 -0.00071515987 -0.033994332 -0.0058076587 0.024391795
-0.053472966 -0.030956909 -0.00048132575 0.057600785 0.032637186 -0.052474774 -0.06599102 -0.00012237324
-0.038619336 -0.0134840235 0.075799145 -0.0053423243 0.07218353 -0.030736718 0.027586961 -0.07031456
0.02948222 0.06639379 -0.0641337 0.025918312 -0.0021598053 -0.018275164 -0.031263396 0.038460944
-0.016936902 0.065072596 -0.00026346146 0.032811657 0.056258213 -0.06134114 0.026431972 -0.024741523
0.021481276 0.0008706186 0.00442893 -0.035818197 0.04801769 -0.044179678 0.02032319 0.06610112
00000000: 2a3c 28bd d822 93ba c10c 663d cb28 ae3c
00000010: f6b3 b13c 0c2f 4e3d 4087 4ebc ddea fc3c
00000020: 1d02 173d b147 bcbb 99a6 03bc e1c3 a4bb
00000030: b2cf e8bc baa2 6dbd a8df 913d 9222 77bb
00000040: 3516 4c3d adf6 6fbd 628a 4eb9 cd5d 943d
00000050: 4b05 6abd 7ef8 2c3d 5784 2fbd 036c a53c
00000060: 4217 39bb 6782 82bb 85ff b23c 918e 8a3d
00000070: c303 eb3b 1b78 373d 9d07 47bb bd5a 89bd
00000080: 29b7 c53b adbe 873d 9029 3d3d 9e3c d5b9
00000090: b145 933d d771 efbc f0e3 9bbd 2230 843c
000000a0: 4f05 b7bc b9ea 33bd 2fcf 70bc b267 2b3d
000000b0: 76f6 3ebd 0972 983c 987a 9bbb 2209 5fbb
000000c0: bdcc 0f3d 1c20 52bd 2a79 86bd 5f55 993d
000000d0: c6d6 f9bc f2ef 22bd 75f0 56bd 9d30 aebc
000000e0: 375a d43b 063a 4d3d eff5 30bd cd06 6d3b
000000f0: f8b0 a6bd 8ed9 083d 7695 5f3d f3e9 7c3d
00000100: 4e83 12b9 4c31 fcbc 3b21 523d 76c4 4eba
00000110: 6ef8 423d ff15 133c b195 2fbb 409a 7439
00000120: b31e 84bd 5fa9 0a39 5880 e03c 2bf1 91b9
00000130: da9c 4bbd 281d 67bd 1221 12bd 2663 e3b8
00000140: 9e56 ebbc cd01 583c 165b ad3c 7d33 37bc
00000150: 9179 3bba a43d 0bbd 2c4e bebb 4dd1 c73c
00000160: 7806 5bbd 5899 fdbc 735a fcb9 cdee 6b3d
00000170: 92ae 053d caef 56bd 4d26 87bd 5151 00b9
00000180: 4f2f 1ebd 18ec 5cbc 953c 9b3d aa0e afbb
00000190: f5d4 933d 92cb fbbc 0dfe e13c 1401 90bd
000001a0: b284 f13c 78f9 873d 8858 83bd a452 d43c
000001b0: 858b 0dbb ccb5 95bc 0c0e 00bd 3989 1d3d
000001c0: 42bf 8abc c844 853d 3321 8ab9 8465 063d
000001d0: 036f 663d d940 7bbd dd87 d83c bcae cabc
000001e0: 80f9 af3c 3a3a 643a 8f20 913b 1ab6 12bd
000001f0: 33ae 443d c0f5 34bd d27c a63c 0660 873d
