rnn/trained_rnn.pth (torch, 45317 bytes, 5 tensors)

rnn.weight_ih_l0 f4 [100, 3]
0	0xbde03160	-0.109469175
1	0x3d1f7c32	0.0389368
2	0xbd1965a0	-0.037450433
3	0x3dbc44a8	0.09192783
4	0xbd01e60e	-0.031713538
5	0xbd0990b7	-0.033585276
6	0x3da660e7	0.081239514
7	0x3d3c3278	0.04594657
8	0x3da9b76e	0.082869396
9	0x3b05f89c	0.0020442372
10	0xbdb48d2b	-0.08815988
11	0x3d051c1e	0.032497518
12	0xbd73e050	-0.059540093
13	0xbd0d9cc8	-0.034573346
14	0xbd7a82a2	-0.061159737
15	0x3da20958	0.079119384
16	0x3b950335	0.0045475014
17	0xbc840b1e	-0.016118582
18	0x3d1b2645	0.037878294
19	0x3d1b7cdb	0.03796087
20	0x3daa4564	0.083140165
21	0x3d3eaced	0.046551634
22	0x3d6811e9	0.056657705
23	0x3db18ef2	0.08669843
24	0x3d8fda9e	0.0702412
25	0xbdc077ef	-0.093978755
26	0x3db9bba5	0.090689935
27	0x3db3dc4d	0.087822534
28	0x3d5c2d4c	0.053754136
29	0x3da2c54c	0.07947788
30	0x3d65f217	0.056139078
31	0xbd7edc9c	-0.06222211
32	0xbbe4b5e1	-0.0069796895
33	0x3ca0b7d9	0.019618915
34	0xbcf62037	-0.030044658
35	0x3d129171	0.035783235
36	0xbcd6a6b9	-0.026202546
37	0xbdd91f8e	-0.10601722
38	0x3d760f99	0.06007347
39	0xbd5eb335	-0.054370124
40	0x3dc11a72	0.09428872
41	0x3d9feb43	0.078085445
42	0xbdba8c58	-0.091088
43	0xbbac6caa	-0.005261977
44	0xbd949dd2	-0.07256664
45	0xbd827af9	-0.063711114
46	0xbb84c771	-0.0040520956
47	0xbdb834ed	-0.0899447
48	0xbd0602cc	-0.03271751
49	0x3d988fa8	0.07449275
50	0xba4a660e	-0.0007720896
51	0xbda4ec96	-0.08052938
52	0x3d8b8339	0.06812138
53	0x3d21efa4	0.03953518
54	0x3cb78d29	0.022406178
55	0xbdbc0d9b	-0.091822825
56	0xbd12ef28	-0.03587261
57	0x3d79127f	0.060808655
58	0x3ca9f195	0.020745078
59	0x3de998a7	0.11406069
60	0x3d26f16a	0.040757574
61	0xbd8f9aca	-0.070119455
62	0xbdccdc71	-0.10002983
63	0xbca05b43	-0.019574767
64	0xbc1f1511	-0.0097096125
65	0xbd59048d	-0.052982856
66	0xbde484d8	-0.111581504
67	0x3c88f0d6	0.016716402
68	0xbd4dea2d	-0.050272156
69	0xbc569ea2	-0.013099344
70	0xbb6b430f	-0.0035898124
71	0xbdcf3186	-0.10116868
72	0x3d42bc9a	0.047543146
73	0x3cd4507a	0.02591728
74	0x3de615f0	0.11234653
75	0x3d8bc35b	0.068243705
76	0x3a837e55	0.0010032157
77	0x3daf4a4a	0.085590914
78	0x3c6fbb35	0.014632036
79	0x3ca83281	0.020531895
80	0x3dee6b85	0.116416015
81	0x3d8ad6e6	0.0677927
82	0xbd83b182	-0.06430341
83	0x3cf559ef	0.02995011
84	0x3d82f96f	0.06395232
85	0x3d4532d0	0.04814416
86	0x3b14384e	0.0022616568
87	0x3c58ed1c	0.013240125
88	0x3d19d370	0.03755516
89	0x3cee2d76	0.029074412
90	0x3d52ee03	0.051496517
91	0x3c9d41a6	0.019196343
92	0x3d890dc8	0.06692082
93	0xbcdcbe99	-0.026946353
94	0xbc67f899	-0.014158391
95	0xbdb4dbc7	-0.08830982
96	0xbd26db4d	-0.040736485
97	0x3c516972	0.012781488
98	0xbda17417	-0.078834705
99	0xbdc024a1	-0.093819864
100	0xbd95eba1	-0.07320333
101	0x3d373564	0.04472865
102	0x3c3bc61b	0.011460806
103	0x3d872d74	0.06600466
104	0x3b85c32f	0.0040821056
105	0x3d81b116	0.063326046
106	0xbda0d347	-0.07852798
107	0xbdaf9814	-0.085739285
108	0xbde6ae63	-0.112637304
109	0x3b112fe5	0.0022153792
110	0xbcfc372e	-0.03078803
111	0x3d8757bc	0.06608531
112	0xbb3f90c6	-0.0029230579
113	0xbd0d4821	-0.034492616
114	0x3da61507	0.081094794
115	0x3d41c653	0.047308277
116	0xbc266163	-0.010155055
117	0xbd7986cb	-0.060919564
118	0x3c2466f3	0.010034311
119	0xbdbb120c	-0.091343015
120	0xbd84db90	-0.06487191
121	0xbd20e09b	-0.0392767
122	0xbd012463	-0.03152884
123	0x3d4b5fbe	0.049651854
124	0x3ce2b64c	0.027674817
125	0xbb87bad3	-0.004142144
126	0x3db84c1b	0.08998891
127	0x3c0ea4bb	0.008706267
128	0xbcf9a2ac	-0.030473076
129	0xbc88f9ad	-0.016720617
130	0x3b70969a	0.003671086
131	0xbb9d69f7	-0.0048038918
132	0xbcb20409	-0.02173044
133	0xbd2e279f	-0.042518254
134	0xbce0753e	-0.027399655
135	0x3c238d17	0.009982369
136	0x3da01758	0.078169525
137	0xbb56bfe5	-0.0032768187
138	0x3da001c5	0.078128375
139	0x3cf389f3	0.029728865
140	0xbcc0372d	-0.02346381
141	0xbdd81a10	-0.10551846
142	0xbb0ef98a	-0.0021816217
143	0xbdc338ca	-0.09532316
144	0xbcdb6716	-0.026782554
145	0x3d94f2c1	0.07272864
146	0xbd64fd91	-0.055905882
147	0x3d082597	0.033238973
148	0x3e1af6c4	0.15133196
149	0xbda76936	-0.08174364
150	0xbc48901a	-0.012241388
151	0x3db56fa9	0.08859188
152	0xbce174e6	-0.027521562
153	0xbda366a4	-0.079785615
154	0xbc4440a7	-0.011978305
155	0x3b8cfb63	0.0043024286
156	0xbd3c63a5	-0.045993466
157	0x3dad57bc	0.08464
158	0x3dbb7af3	0.0915431
159	0xbdb70aac	-0.089375824
160	0xbb704451	-0.0036661814
161	0xbd1e5691	-0.038656775
162	0x3c8a084f	0.016849665
163	0xbd9fd5d9	-0.0780446
164	0xbb4620a6	-0.0030231862
165	0x3dc0e590	0.094187856
166	0x3dc96b71	0.09834946
167	0x3dc0fe01	0.094234474
168	0xbd991806	-0.07475285
169	0x3934d7b1	0.00017246489
170	0xbda27b77	-0.07933705
171	0xbde03e49	-0.1094938
172	0x3d1a9bc2	0.0377462
173	0xbc673334	-0.014111329
174	0xbdef6354	-0.11688867
175	0x3d181c3e	0.03713631
176	0x3cc02404	0.023454674
177	0xbd9a693a	-0.075396016
178	0x3d4f1288	0.050554782
179	0xbd9afb35	-0.07567445
180	0x3d9b2142	0.07574703
181	0xbdb115d6	-0.08646743
182	0xbc5b2f35	-0.013377954
183	0xbde3d6af	-0.11124932
184	0x3d6742fd	0.05646037
185	0xbca4fbb2	-0.020139549
186	0xbce3f483	-0.027826553
187	0x3d9cf783	0.076643966
188	0xbd1ae161	-0.037812594
189	0x3cbf9e6c	0.023390971
190	0x3d7931d4	0.060838535
191	0xbde34143	-0.11096432
192	0x3d399367	0.04530659
193	0x3c8ff3f2	0.017572377
194	0xbd6fa6e5	-0.058508772
195	0xbb189e9c	-0.0023287898
196	0xbd50634c	-0.050875947
197	0xbda45443	-0.08023884
198	0xbb6cf862	-0.003615879
199	0xb907a2e0	-0.00012935279
200	0xbde41966	-0.11137657
201	0x3db0bf01	0.08630181
202	0x3bea746a	0.007154991
203	0xbd9943e0	-0.07483649
204	0x3dee9ed1	0.116513856
205	0xbc97fece	-0.018554118
206	0xbb46cf0d	-0.0030335814
207	0xbdf5866c	-0.119885296
208	0x3cf3ecd7	0.02977602
209	0x3d0ba9e3	0.034097563
210	0x3d717778	0.058951825
211	0xbd8cca57	-0.06874531
212	0xbd5e412c	-0.05426137
213	0x3ce76c88	0.028249994
214	0xbd395568	-0.045247465
215	0x3cf584f1	0.029970618
216	0x3da69fc0	0.08135939
217	0x3cbbe9ff	0.022938726
218	0x3d9f4e55	0.077786125
219	0x3d9d07bd	0.076674916
220	0xbd76dd15	-0.060269434
221	0x3dda2053	0.106506966
222	0x3da75fd3	0.08172574
223	0xbd5dc188	-0.054139644
224	0xbd033202	-0.032030113
225	0xbda3efdf	-0.08004736
226	0xbc9a187e	-0.018810507
227	0x3d8b4482	0.06800176
228	0x3b8c1ded	0.0042760284
229	0xbd0daa03	-0.034585964
230	0x3dcf02ef	0.101079814
231	0xbc927b01	-0.017880918
232	0x3d98ab6d	0.07454572
233	0xbd053f6f	-0.032531198
234	0x3d7081d1	0.058717553
235	0xbd3e75e5	-0.04649915
236	0x3dce99a8	0.10087901
237	0xbda49ce9	-0.08037741
238	0xbd269e42	-0.04067827
239	0xbde93105	-0.11386303
240	0xbd76e84d	-0.060280133
241	0x3b81a872	0.003956848
242	0xbcede501	-0.029039862
243	0x3dc4cf0d	0.09609804
244	0xba42af34	-0.000742662
245	0x3d26e171	0.04074234
246	0xbde3c499	-0.111214824
247	0xbb122166	-0.002229774
248	0xbc4283a9	-0.011872211
249	0x3ca13137	0.019676788
250	0xbbaa0b79	-0.005189356
251	0xbb3a2fa7	-0.002840975
252	0xbd73f31a	-0.05955801
253	0x3d8dee20	0.06930184
254	0x3d48b3af	0.048999485
255	0x3debcca7	0.11513644

rnn.weight_hh_l0 f4 [100, 100]
0	0x3cf2eda4	0.029654332
1	0x3d7b165e	0.061300628
2	0x3da7ad13	0.08187308
3	0x3d8abfd1	0.06774867
4	0x3a4ee500	0.00078924
5	0xbcba1768	-0.02271624
6	0xbdc502c8	-0.09619671
7	0x3d9ba469	0.07599718
8	0xbcb554ac	-0.022135101
9	0xbd848d96	-0.06472318
10	0xbc2d7428	-0.010586776
11	0xbda18136	-0.07885973
12	0xbdc9c9e5	-0.098529615
13	0x3d94a44b	0.07257899
14	0x3da4233f	0.08014535
15	0x3d8b9ce9	0.068170376
16	0xbdaf8407	-0.08570104
17	0x3d1b2092	0.03787286
18	0x3cfcc08c	0.030853532
19	0x3d64b9aa	0.055841126
20	0x3d228012	0.03967292
21	0x3d827667	0.0637024
22	0xbdc15b70	-0.094412684
23	0xbc293130	-0.010326669
24	0x3d8cc387	0.068732314
25	0xbbaf3b30	-0.005347632
26	0xbd6d3ea3	-0.057921063
27	0x3ca815e8	0.020518258
28	0x3dbcd1bb	0.092196904
29	0xbcbe1d00	-0.023207188
30	0xbc6d1b10	-0.014471784
31	0x3da344a3	0.07972076
32	0xbda80cb0	-0.08205545
33	0xbda4d51d	-0.08048461
34	0x3c750518	0.014954828
35	0xbda644ab	-0.08118566
36	0xbd8ded30	-0.069300056
37	0xbdafa96a	-0.08577235
38	0x3d938f99	0.072051235
39	0xbdba30ca	-0.09091337
40	0xbda2c1c3	-0.07947113
41	0xbc136af0	-0.008997664
42	0xbd8a9966	-0.0676754
43	0xbd761803	-0.060081493
44	0x3d9cb225	0.07651166
45	0x3d2245b2	0.039617248
46	0xbb46bd00	-0.0030325055
47	0x3d863bb1	0.06554354
48	0xbd95dcbd	-0.07317493
49	0xbd464877	-0.04840895
50	0x3d345aca	0.044031896
51	0x3db55481	0.088540085
52	0x3dc6a1cb	0.09698828
53	0xbdac3a32	-0.084095374
54	0x3d706caa	0.05869738
55	0x3da520d5	0.08062903
56	0xbd5c14c3	-0.053730737
57	0xbd899eed	-0.06719766
58	0xbd8d2460	-0.068917036
59	0xbcbefe38	-0.02331458
60	0x3d543116	0.051804624
61	0xbd6b3cfa	-0.0574312
62	0xbdbf77b8	-0.093490064
63	0x3b104400	0.0022013187
64	0xbdb65f80	-0.08904934
65	0xbb1f3800	-0.0024294853
66	0xbdbab51a	-0.09116574
67	0x3dc08245	0.09399847
68	0xbcc81558	-0.02442424
69	0x3c33f8b0	0.010984585
70	0x3dbef559	0.0932414
71	0x3bc4e450	0.0060086623
72	0x3d2347a2	0.039863236
73	0x3d805819	0.06266803
74	0xbda9f7e5	-0.08299235
75	0xbc2823c0	-0.01026243
76	0x3dbf7133	0.09347763
77	0xbc95eeec	-0.018302403
78	0x3d714cbe	0.058911078
79	0x3adb5540	0.001673378
80	0x3ced1ee4	0.028945394
81	0xbcfbeab8	-0.030751571
82	0xbd8edc60	-0.06975627
83	0xbbe5f160	-0.0070172995
84	0x3d41ef8e	0.047347598
85	0x3c8ad20c	0.016945861
86	0x3dcbfc49	0.09960229
87	0x3cd31534	0.025766946
88	0xbd05e370	-0.032687604
89	0xb9a0c000	-0.0003066063
90	0x3d7ac7da	0.06122575
91	0xbd9a7fe8	-0.075439274
92	0xbacfd680	-0.0015856773
93	0xbd683f50	-0.056701005
94	0x3c845da0	0.016157925
95	0x3cde0e5c	0.027106456
96	0x3dbd7161	0.09250141
97	0x3c402b98	0.011729144
98	0x3d20f782	0.03929854
99	0x3d59e53a	0.053197123
100	0x3d986031	0.07440222
101	0xbcae6cd8	-0.021292135
102	0x3ca21eec	0.019790135
103	0xbcffde54	-0.031233944
104	0x3cb885ac	0.022524677
105	0xbc89f674	-0.01684115
106	0x3d511ee2	0.051054843
107	0xbdbfb865	-0.09361342
108	0xbd791b53	-0.060817074
109	0x3ce6cfcc	0.028175257
110	0x3d7c334a	0.06157235
111	0x3db1cc1b	0.08681508
112	0xbdc3db65	-0.095633306
113	0xbdc46627	-0.095897965
114	0x3d46cf86	0.048537754
115	0xbcf723ac	-0.030168377
116	0x3d98f61f	0.07468819
117	0xbdbe0df2	-0.092800036
118	0xbcdc8d80	-0.026922941
119	0xbc809c08	-0.015699401
120	0x3c538230	0.012909457
121	0xbd9b328a	-0.07577999
122	0x3c140a28	0.009035625
123	0x3dbae13f	0.091249935
124	0x3d826069	0.06366045
125	0xbdbfc360	-0.09363437
126	0xbcccca98	-0.024998948
127	0xbd506d57	-0.050885525
128	0x3d3911da	0.04518304
129	0xbd474e47	-0.048658635
130	0x3aa28980	0.0012400597
131	0x3d7ebf32	0.062194057
132	0x3a8d52c0	0.0010782108
133	0x3d78fb86	0.060786746
134	0xbc0b3d30	-0.008498475
135	0xbd92943b	-0.07157179
136	0x3c93a4d4	0.018022932
137	0x3cbd62d4	0.023118414
138	0xbd86a376	-0.065741464
139	0xbd839b6a	-0.06426127
140	0xbd9b7b3b	-0.07591864
141	0xbd532643	-0.05155016
142	0x3dac0131	0.08398665
143	0xbd3fc310	-0.046816885
144	0xbdb5adfb	-0.08871075
145	0x3da607f9	0.081069894
146	0xbdc53a8a	-0.09630306
147	0xbdc35a3d	-0.09538696
148	0x3da3a18f	0.07989799
149	0x3cd5e55c	0.026110344
150	0x3c4ce210	0.012505069
151	0x3cdb1e5c	0.026747875
152	0xbbc3b3a0	-0.0059723407
153	0xbcf4f494	-0.02990178
154	0xbc833b60	-0.016019523
155	0x3c858ae8	0.016301587
156	0x3d1910a2	0.037369378
157	0x3d9a9c23	0.07549312
158	0x3d4f3932	0.050591655
159	0x3d58672a	0.05283276
160	0x3d6308b6	0.05542823
161	0xbd3ab09a	-0.045578577
162	0x3ca56788	0.02019097
163	0xbd270c23	-0.04078306
164	0xbd787850	-0.060661614
165	0x3cbac88c	0.022800706
166	0x3da412f3	0.08011427
167	0x3d668ffe	0.056289665
168	0x3ca775ac	0.020441853
169	0x3d9dcd99	0.0770523
170	0x3cd90e64	0.02649612
171	0x3d61759e	0.05504381
172	0xbd58018a	-0.052735843
173	0x3c866594	0.016405858
174	0x3cd511dc	0.026009493
175	0xbdc7b333	-0.097509764
176	0x3d9cc9d1	0.07655681
177	0xbc9ec1c0	-0.019379497
178	0x3d03c362	0.032168753
179	0x3d60d6be	0.054892294
180	0x3d1c42a2	0.038149484
181	0xbd8607c2	-0.065444484
182	0xbdbfb29a	-0.093602374
183	0xbdafbd30	-0.085810065
184	0x3d32a882	0.043617733
185	0x3a8ba600	0.001065433
186	0x3d782856	0.060585342
187	0x3d888323	0.06665637
188	0x3cac98f8	0.021069035
189	0x3d13dd36	0.036099635
190	0x3d983821	0.07432581
191	0x3dc7f9e1	0.097644575
192	0x3d4fa1a6	0.05069127
193	0x3d966b25	0.07344655
194	0xbd85460d	-0.06507502
195	0xbba20750	-0.0049447194
196	0x3d258b8a	0.040416278
197	0x3d01a322	0.031649716
198	0xbb980230	-0.0046389326
199	0x3cd0a944	0.025471337
200	0xbda3168d	-0.079632856
201	0x3dab8f17	0.083769016
202	0xbceb20e8	-0.028702214
203	0x3d637cd2	0.05553896
204	0xbd6588a7	-0.056038525
205	0x3ba88760	0.005143091
206	0x3d325f12	0.043547697
207	0x3d451b7e	0.04812192
208	0x3d9cc625	0.076549806
209	0x3c79bea8	0.01524321
210	0x3d1b3d16	0.037900053
211	0xbd2fb430	-0.04289645
212	0xbd01e750	-0.031714737
213	0x3d14c32a	0.036318935
214	0xbd9d9775	-0.07694904
215	0x3da90825	0.082535066
216	0x3c8fbccc	0.01754608
217	0x3d918ac1	0.07106543
218	0x3cd335d4	0.025782503
219	0xbda44442	-0.08020832
220	0x3d3dbb42	0.04632116
221	0xbce70008	-0.028198257
222	0x3d9f7f3b	0.07787939
223	0xbdc976a0	-0.09837079
224	0x3d8ef511	0.069803365
225	0xbd92045b	-0.07129737
226	0xbd921530	-0.071329474
227	0x3c6e4c30	0.014544532
228	0xbdbfd18f	-0.09366142
229	0xbd10b154	-0.035325363
230	0x3d9e497f	0.07728862
231	0xbc9d40a0	-0.019195855
232	0x3c0b2158	0.0084918365
233	0xbd8a0e94	-0.06741062
234	0x3d26a862	0.040687926
235	0x3db02981	0.08601666
236	0x3dbce811	0.09223951
237	0x3d988aab	0.07448324
238	0x3d0a6f9e	0.033797853
239	0xbd19aaba	-0.037516333
240	0x3c2aa368	0.010414936
241	0x3be483b0	0.006973706
242	0xbc4fc898	-0.012682103
243	0x3db7b501	0.08970071
244	0xbd8d1d8a	-0.068904
245	0xbd7416a3	-0.0595919
246	0xbda9cb95	-0.08290783
247	0xbd2e9e40	-0.042631388
248	0x3b05e800	0.0020432472
249	0x3d36c7d2	0.044624157
250	0x3d877bb9	0.06615395
251	0xbd4e5660	-0.050375342
252	0x3ba86380	0.0051388144
253	0xbbdb4720	-0.0066918284
254	0xbd6b7867	-0.05748787
255	0xbdcb0d9d	-0.09914706

rnn.bias_ih_l0 f4 [100]
0	0x3d6a7975	0.057244737
1	0x3db6b080	0.089203835
2	0xbda38419	-0.0798418
3	0xbd3f4f51	-0.0467065
4	0x3d80806e	0.06274496
5	0xbd2cc365	-0.04217853
6	0xbd6bb5fd	-0.057546604
7	0x3bcef5f9	0.0063159433
8	0xbbc31e50	-0.0059545413
9	0xbc0aad8c	-0.008464228
10	0xbd45640b	-0.04819111
11	0x3d93d394	0.0721809
12	0x3d952945	0.07283262
13	0xbdb28f44	-0.08718732
14	0xbd859e5f	-0.065243475
15	0xbd95c0a5	-0.07312135
16	0x3d1d2fc1	0.03837562
17	0x3cbd18b5	0.02308307
18	0x3d9e2919	0.077226825
19	0xbbf66bf6	-0.007520194
20	0xbda2be89	-0.07946498
21	0xbc262296	-0.010140082
22	0xbd359077	-0.044327226
23	0xbdd241a7	-0.102664284
24	0x3d8022f2	0.06256665
25	0xbd9054ab	-0.07047399
26	0x3c260e5f	0.010135262
27	0x3bd08ee1	0.0063646887
28	0x3d9b3a4e	0.0757948
29	0x3d955d54	0.072931916
30	0x3dac3954	0.08409372
31	0x3c0e0e3b	0.008670385
32	0x3d315363	0.043292414
33	0xbd110f1f	-0.03541481
34	0x3d6eb550	0.05827838
35	0x3d882097	0.06646841
36	0xbdc572e3	-0.096410535
37	0xbcc3f73e	-0.023921605
38	0xbdbc63a6	-0.09198694
39	0xbd8449e5	-0.06459407
40	0xbd863627	-0.065532975
41	0xbda715f9	-0.08158488
42	0x3da49b1c	0.08037397
43	0xbdb2c2aa	-0.087285355
44	0x3d239d66	0.03994503
45	0xbd6134b6	-0.05498191
46	0xbda72f46	-0.081633136
47	0x3d930ef7	0.07180589
48	0xbd6dc02a	-0.05804459
49	0xbc18787d	-0.00930607
50	0xbd885e82	-0.06658651
51	0xbdb977b7	-0.09056037
52	0xbca424ef	-0.020037143
53	0x3d49530a	0.049151458
54	0x3a97fa32	0.001159495
55	0x3df30ac1	0.118672855
56	0xbd3e22b3	-0.04641981
57	0x3dbe3605	0.09287647
58	0x3d86b477	0.0657739
59	0xbcbea6ed	-0.023272956
60	0x3d46c2af	0.04852551
61	0x3d196aa1	0.037455205
62	0xbd380d62	-0.044934638
63	0xbd9713d7	-0.07376831
64	0xbd3f95dd	-0.04677378
65	0x3d0023be	0.031284086
66	0xbd865810	-0.06559765
67	0x3cb63140	0.022240281
68	0xbd75a953	-0.059975933
69	0xbceb3bb4	-0.028714992
70	0x3d7586b3	0.059942912
71	0xbac30cbd	-0.0014881116
72	0xbd906921	-0.07051302
73	0xbb87aeca	-0.0041407095
74	0x3d54d6e1	0.051962737
75	0xbdc4d20c	-0.09610376
76	0xbd9b8262	-0.07593228
77	0x3d7dc477	0.06195494
78	0xbcbc9a89	-0.023022907
79	0x3dadf47a	0.08493896
80	0xbd3dbc53	-0.046322178
81	0x3d5e0ed2	0.054213353
82	0xbdd70909	-0.1049977
83	0xbda6ffdf	-0.08154272
84	0xbd55b818	-0.05217752
85	0xbd285bdc	-0.04110323
86	0xbd11bb6a	-0.035579123
87	0xbd9e3d94	-0.07726589
88	0xbd1ddaf2	-0.03853888
89	0xbd9b4182	-0.07580854
90	0x3dbf8532	0.09351577
91	0x3d262ff3	0.04057307
92	0x3d1a52a0	0.037676454
93	0xbd404a99	-0.046946142
94	0x3d8047a7	0.062636666
95	0xbddea2e8	-0.10870916
96	0x3d8821ea	0.066470936
97	0x3ccace3f	0.024756549
98	0xbb9600ee	-0.0045777475
99	0x3cdc3036	0.026878458

rnn.bias_hh_l0 f4 [100]
0	0x3d8d5524	0.06901005
1	0xbdc3f078	-0.0956735
2	0xbd990aa9	-0.074727364
3	0x3aa09cea	0.0012253795
4	0xbbe16c8a	-0.006879394
5	0x3daeef3a	0.085417226
6	0xbdc54e4a	-0.09634073
7	0xbdc28d69	-0.09499628
8	0xbba8148e	-0.0051294034
9	0xbd08b02e	-0.033371143
10	0x3d74cb6b	0.059764307
11	0xbdcc8062	-0.099854246
12	0x3c5d8f5c	0.013522949
13	0x3c86a71a	0.016437102
14	0xbda63e69	-0.081173725
15	0x3c2a733d	0.0104034515
16	0x3da9084c	0.08253536
17	0x3cb27e8e	0.021788862
18	0x3d9e4b8f	0.077292554
19	0xbda2d8e7	-0.07951527
20	0xbcb43530	-0.021998018
21	0x3d963f11	0.07336248
22	0x3d883122	0.06649996
23	0x3ceb7e75	0.028746823
24	0x3d91a146	0.071108386
25	0x39d807cd	0.00041204543
26	0x3d441928	0.047875553
27	0x3dd64d18	0.10463923
28	0xbbacd253	-0.005274096
29	0x3d65e4fc	0.05612658
30	0xbc2b17d4	-0.010442693
31	0x3c585853	0.013204652
32	0xbbabe11c	-0.005245341
33	0x3da1247e	0.078682885
34	0x3d50f824	0.051017895
35	0xbc75cfea	-0.015003184
36	0x3c7dde36	0.015494874
37	0xbb486b20	-0.003058143
38	0xbd9cb2a0	-0.076512575
39	0xbcd96fbb	-0.026542535
40	0x3d83f188	0.06442553
41	0x3bdd1a70	0.0067475364
42	0x3c4d2f78	0.012523524
43	0x3c586b24	0.013209138
44	0xbd4356bb	-0.047690134
45	0xbd8467bc	-0.06465098
46	0xbd97d996	-0.07414548
47	0xbdb054d3	-0.08609929
48	0x3bb14dfd	0.0054109083
49	0x3c826a6e	0.01591989
50	0x3da7559e	0.08170627
51	0x3d5cb2e5	0.053881545
52	0xbd6d38c1	-0.057915453
53	0x3ccaf06b	0.024772843
54	0x3ca75d16	0.020430129
55	0xbc970946	-0.01843704
56	0x3b890c21	0.004182354
57	0x3e10873e	0.14114091
58	0x3dd565eb	0.1041983
59	0xbd8ef15d	-0.0697963
60	0x3dc9793d	0.098375775
61	0xbd6e3d1a	-0.05816374
62	0x3c6cb160	0.014446586
63	0x3cc7930e	0.024362113
64	0x3cacadff	0.021079062
65	0xbda8bc03	-0.082389854
66	0xbc0293ef	-0.00796984
67	0xbd0d3126	-0.0344707
68	0xbd348b5f	-0.044078227
69	0xbd9b99e7	-0.07597714
70	0xbd104dbd	-0.035230387
71	0xbc396214	-0.011314888
72	0xbcb31793	-0.021861827
73	0x3d00c856	0.031441055
74	0xbcb6b0f9	-0.022301184
75	0x3cf67ca6	0.030088734
76	0xbd3e947e	-0.046528332
77	0xbcdf170a	-0.027232666
78	0xbc02cb13	-0.007982987
79	0xbdb7c943	-0.089739345
80	0xbd8aa77c	-0.06770226
81	0x3d8e9000	0.069610596
82	0x3d9b89ef	0.07594668
83	0xbc902e9c	-0.01760035
84	0xbd3daf7c	-0.046309933
85	0xbd829071	-0.06375206
86	0xbd500925	-0.05078997
87	0x3d325d4f	0.043546017
88	0xbd2ebe60	-0.042662024
89	0x3c39643a	0.0113154
90	0x3d667345	0.056262273
91	0xbdd465c5	-0.103709735
92	0xbdb52b07	-0.088460974
93	0x3d455019	0.04817209
94	0xbdd0a1d6	-0.10187118
95	0x3d33e662	0.043920882
96	0xbda5ff86	-0.08105378
97	0xbd166ab1	-0.036722843
98	0xbd8e15a4	-0.06937721
99	0xbd449c93	-0.048000883

fc.weight f4 [1, 100]
0	0xbd9a13fd	-0.07523344
1	0x3c1ecb85	0.0096920775
2	0x3cd3102d	0.02576455
3	0xbd6a14b1	-0.05714864
4	0xbde48615	-0.111583866
5	0x3d93db0f	0.072195165
6	0xbca352a3	-0.019936865
7	0x3cb71774	0.02235005
8	0xbd9ac49c	-0.075570315
9	0xbd86d901	-0.06584359
10	0xbca6651e	-0.020311888
11	0xbd6e0c1e	-0.058117025
12	0xbd615b34	-0.05501862
13	0x3db8a399	0.09015579
14	0xbd27bace	-0.040949635
15	0xbddbe8ac	-0.10737738
16	0xbc0ed0b1	-0.008716748
17	0xbd9c7474	-0.07639399
18	0x3d896e25	0.067104615
19	0x3d8c6292	0.06854738
20	0xbce26ad1	-0.027638825
21	0xbca25b55	-0.019818941
22	0xbdee31be	-0.11630581
23	0xbd29daf5	-0.04146858
24	0x3da65e80	0.08123493
25	0xbc522469	-0.012826064
26	0x3df1da52	0.118092194
27	0xbd0567db	-0.032569747
28	0x3d9c4401	0.07630158
29	0x3b4f4640	0.0031627566
30	0x3a8960ce	0.001048112
31	0xbc94939c	-0.018136792
32	0xbd8959fb	-0.067066155
33	0x3d49604d	0.049164105
34	0xbd4eb8c6	-0.050469182
35	0x3d3e236b	0.046420496
36	0xbcaf9d4f	-0.021437315
37	0x3d632876	0.05545851
38	0x3db715c0	0.08939695
39	0xbc438601	-0.0119338045
40	0xbd0271e1	-0.031846885
41	0x3d888947	0.066668086
42	0x3c1c2efc	0.009532686
43	0xbd1d942c	-0.038471386
44	0xbdcb79e1	-0.09935356
45	0xbdac440b	-0.08411416
46	0x3d93c752	0.07215752
47	0xbd11d6d6	-0.035605274
48	0xbd997d76	-0.07494633
49	0x3cf0d1cd	0.029396916
50	0x3ba98dd2	0.005174377
51	0xbc1fe285	-0.009758596
52	0x3d54aaef	0.051920827
53	0xbd22eb2b	-0.039775055
54	0x3d97bc26	0.07408933
55	0xbd421ab0	-0.047388732
56	0xbe069fac	-0.13146847
57	0xbc0e5ab5	-0.008688618
58	0xbd58f98b	-0.052972358
59	0xbdc7ebfb	-0.097618066
60	0xbd2fabb6	-0.042888366
61	0xbdb84cac	-0.08998999
62	0xbc466a76	-0.012110343
63	0xbd909ce7	-0.07061177
64	0xbd7fea7f	-0.062479492
65	0xbd791e70	-0.060820043
66	0xbc9dffc7	-0.019287003
67	0x3db8ad31	0.09017409
68	0x3ccea21f	0.02522379
69	0xbddaed75	-0.106898226
70	0xbd26c2b0	-0.040713012
71	0xbcaa72ae	-0.020806637
72	0x3daa56e7	0.083173566
73	0x3dc1ea1a	0.094684795
74	0x3d9988e2	0.074968114
75	0xbd7ee51a	-0.062230207
76	0x3d9be58e	0.076121435
77	0xbd4aefd5	-0.049545128
78	0x3d27ecea	0.040997423
79	0xbdca1562	-0.0986736
80	0xbdc31235	-0.09524957
81	0x3d80260f	0.06257259
82	0xbd778e2e	-0.060438327
83	0x3adfd0ce	0.0017075778
84	0xbd26266b	-0.040563982
85	0x3bf1b071	0.00737577
86	0x3d991ce7	0.07476216
87	0xbc0ca87f	-0.0085850945
88	0xbd894dbe	-0.06704281
89	0xbd9bb21c	-0.07602331
90	0xbd38b3f9	-0.04509351
91	0xbd3a93bb	-0.045551043
92	0xbd1e7564	-0.03868617
93	0x3c3e1ad8	0.01160308
94	0x3d4f5aef	0.05062383
95	0x3dc86127	0.09784155
96	0xbe0060b7	-0.12536894
97	0x3d49fe10	0.04931456
98	0xbd9250ac	-0.07144293
99	0x3d20dbdc	0.039272174
