ffnn/ffnn_model.pth (torch, 2683 bytes, 3 tensors)

linear1.weight f4 [15, 3]
000000 34 eb 22 3e e8 54 a0 3e c0 b2 a5 3e 32 15 81 be
       0.15910035 0.31314778 0.32362938 -0.25211483
000010 2d 61 54 be 81 f6 de be 1a 4f d3 3e 06 25 bd be
       -0.20740195 -0.43547443 0.41271287 -0.3694231
000020 f2 78 06 bf 70 d1 60 3d 8a 26 4b be d8 7f 9d 3e
       -0.525283 0.054887235 -0.1983892 0.307616
000030 b0 00 99 3e b8 68 08 3f a3 58 c3 be 65 bf c1 be
       0.29883337 0.5328479 -0.38153562 -0.37841335
000040 90 63 a7 be cb 00 41 be ae 4f d4 3c a6 24 60 bc
       -0.32693148 -0.18847959 0.0259169 -0.013680613
000050 f2 2a 1a 3f dc 77 07 be 62 42 ce 3e 08 47 fa 3e
       0.6022178 -0.13229316 0.4028502 0.48882318
000060 ea 8e f1 be 4a b7 7e be 20 65 4a be d2 18 06 3f
       -0.47179347 -0.24874607 -0.19765139 0.5238162
000070 40 00 d4 be 12 90 22 be fe 0b 93 be 5f 06 8a be
       -0.4140644 -0.15875271 -0.28720087 -0.26957986
000080 f5 29 e9 3e 20 15 07 3f 9c b9 e0 3e 3e e7 81 3e
       0.45539823 0.5276661 0.4389161 0.25371736
000090 80 04 b5 bc d2 4b bc be 0d 42 bc be 90 44 19 be
       -0.022096872 -0.36776596 -0.36769143 -0.14967561
0000a0 f2 b8 db be 94 f0 85 3e 0a 85 2f bf bd 0b 15 3d
       -0.4291454 0.2616011 -0.68562376 0.036388148
0000b0 56 79 98 3e
       0.29780072

linear1.bias f4 [15]
000000 70 f4 4c be 95 04 c9 3e 2c a1 19 be 9e 8b 1c be
       -0.2001512 0.39261308 -0.15002888 -0.15287635
000010 8a 4e d8 be fb e6 2f 3e 25 2d 40 3e b5 76 03 bf
       -0.4224742 0.17177956 0.18767221 -0.5135301
000020 67 6d c3 be 38 58 af be e3 55 07 3d 36 cf af be
       -0.38169405 -0.34246993 0.033040892 -0.34337777
000030 f0 a8 0e bd 74 54 46 be 84 d9 82 3e
       -0.03482908 -0.19368154 0.25556576

linear2.weight f4 [1, 15]
000000 8a a2 d5 bd 56 f7 02 be 6b d3 6b be e4 24 0a bd
       -0.104313925 -0.12789664 -0.23029868 -0.033726588
000010 0f cb 83 3e e5 c2 be bd 33 24 26 3e 60 67 2f 3e
       0.2574086 -0.09314517 0.16224746 0.17129278
000020 f2 06 b7 bd ec 16 62 be a2 6c 30 3e 24 bc 25 bd
       -0.089368716 -0.22079057 0.1722894 -0.040462628
000030 74 25 da bd 62 80 95 bd 51 2c 71 be
       -0.10651675 -0.07299878 -0.23552062
