ffnn/trained_ffnn.pth (torch, 3023 bytes, 4 tensors)

linear1.weight f4 [20, 3]
00000000: 860d 27bf b41b 233e 7502 d53e 333c 1cbf
00000010: aa29 d7be 07fe c1be b5b5 97be 709f 66be
00000020: 41fc 24bf 427e dcbe ec27 4a3e 43dc ccbe
00000030: 300a 0abf 3b10 f2be d2d6 3bbe 47a5 fa3e
00000040: 07de debd abee 9fbe 69e4 e93e 4ffe d93e
00000050: c72a cb3e 91d4 47be 31e5 543d c2d1 00bf
00000060: a03e 923d e7e0 d33e 62c3 afbd ca3e 0d3f
00000070: b464 dcbe 4173 0abf 375b 14bd db42 d13e
00000080: 45da 343d 06a2 9b3d c9b0 f03c d035 3d3f
00000090: cec6 9c3e 0098 49bd c052 bfbd f3d9 513b
000000a0: 1f3a 49be a4da a8be 8bb8 1f3f 1b70 173e
000000b0: 636e 64bc 13dd 0d3f 724e 213e 7d08 1b3f
000000c0: 68d3 6abe d49b 4a3e d8e3 1e3e ca54 063f
000000d0: 51fc d7be ec79 2c3f 77e4 b53e 31fc b23e
000000e0: d9f9 3f3d 817f abbe a1da 453e 9386 34be
-0.6525501 0.15928537 0.41603437 -0.61029357 -0.42023975 -0.3788912 -0.2963082 -0.22521758
-0.6444741 -0.43065077 0.19741791 -0.40011796 -0.53921795 -0.47278008 -0.18343666 0.48954222
-0.10882192 -0.31236777 0.45682076 0.42576835 0.39681074 -0.19514681 0.051976386 -0.50320065
0.07140851 0.41382524 -0.08582188 0.55173934 -0.4304558 -0.54082114 -0.0362198 0.4087132
0.04415347 0.07599263 0.029381173 0.73910236 0.30620426 -0.049217224 -0.09341955 0.0032020777
-0.19651078 -0.3297931 0.62390965 0.14788859 -0.013942334 0.5541546 0.15752581 0.6055983
-0.22932208 0.19786006 0.15516603 0.5247313 -0.4218469 0.6737354 0.35525867 0.34958032
0.046869133 -0.33495715 0.19321682 -0.17629461

linear1.bias f4 [20]
00000000: 26c3 38be 9bfb ebbe f3ba 5bbe c553 4e3e
00000010: 04af 633d 98ce 023e 639f c23e a5a0 1c3e
00000020: 8b54 6c3e 3e83 26ba cb50 9dbe ddae c93e
00000030: 8a12 923e 6b48 f5be a541 81bc d404 96bc
00000040: 30d4 abbe 0a8e c1be aef1 483d b141 a83d
-0.18043193 -0.46090397 -0.21458034 0.20149143 0.05558683 0.12774122 0.38012227 0.15295656
0.23079126 -0.0006351954 -0.30725703 0.39391223 0.2852977 -0.47906813 -0.015778372 -0.01831285
-0.33560324 -0.3780368 0.04905861 0.08215655

linear2.weight f4 [3, 20]
00000000: 5a52 dcbe 5dda 80be 4b75 bcbe ac0a 5abe
00000010: 981e 19be 53ec 3b3e c2d0 663e d75b cabe
00000020: 4f9f 1bbd 78d9 ab3e 7416 d23d c102 8a3d
00000030: 731d b33d 83f0 9e3c 5c1f 233e 0b15 9f3e
00000040: ce62 3b3e 3639 9d3e d38f 0a3e 7faa edbc
00000050: 2162 87be ebf2 dabe e15e 88be 9794 4cbe
00000060: 6d6b 6cbe 9dab ac3e 46a4 013f e9a4 213e
00000070: bdb7 913d bf73 5f3e 1246 ed3d 2f61 bcbe
00000080: 6381 843d 754e 6ebe 154e 743e 5112 bc3e
00000090: cc82 48be a4aa 843e 3ce9 d73c 1efd 15be
000000a0: 1c64 863e 4cc5 b23e 1711 333e de8b 953d
000000b0: e14b 323e b330 30be 607f a3be b793 6b3e
000000c0: 5932 a33d 1593 663d 8a6f b1be 5218 80be
000000d0: 8f34 50be 48f6 a33c 139b 4cbe ba16 3fbe
000000e0: 40e2 6e3c e380 a8bc dff7 e3bd 8e71 7c3e
-0.4303158 -0.25166598 -0.36808237 -0.21293133 -0.14953077 0.1835187 0.22540572 -0.39523193
-0.037993725 0.33564353 0.10258189 0.067388065 0.08745851 0.019401794 0.15929931 0.31070742
0.1829941 0.3070771 0.13531427 -0.029011963 -0.26442054 -0.42763457 -0.26634887 -0.19978558
-0.23087855 0.3372468 0.50641286 0.15785564 0.071151234 0.21821497 0.115856305 -0.36792895
0.06469991 -0.23272116 0.23857911 0.36732724 -0.19581145 0.25911438 0.026356332 -0.14647338
0.26248252 0.3491615 0.17486988 0.07302068 0.17411758 -0.17206077 -0.31933117 0.23005567
0.079685874 0.056292612 -0.3465541 -0.25018555 -0.2033255 0.020014897 -0.19981031 -0.18661013
0.014580309 -0.02056927 -0.11131262 0.24652693

linear2.bias f4 [3]
00000000: 615e e13d 7b4a e4bd 9cb0 f03b
0.110043295 -0.111470185 0.007345272
