rbfn/trained_rbfn.pth (torch, 2831 bytes, 3 tensors)

sigs f4 [20]
0	0x411b3333	9.7
1	0x411b3333	9.7
2	0x411b3333	9.7
3	0x411b3333	9.7
4	0x411b3333	9.7
5	0x411b3333	9.7
6	0x411b3333	9.7
7	0x411b3333	9.7
8	0x411b3333	9.7
9	0x411b3333	9.7
10	0x411b3333	9.7
11	0x411b3333	9.7
12	0x411b3333	9.7
13	0x411b3333	9.7
14	0x411b3333	9.7
15	0x411b3333	9.7
16	0x411b3333	9.7
17	0x411b3333	9.7
18	0x411b3333	9.7
19	0x411b3333	9.7

mus f4 [20, 3]
0	0x3e2047a4	0.15652329
1	0x3f2247e7	0.63390964
2	0xbd7d68a8	-0.061867386
3	0xc03827ee	-2.877437
4	0xc102749f	-8.153472
5	0x3ffffffb	1.9999994
6	0x3fa3b613	1.278994
7	0x4120bce2	10.046114
8	0xbf7ffff6	-0.9999994
9	0x3e19e7e0	0.1502986
10	0xc04f8dad	-3.2430222
11	0x34000000	1.1920929e-07
12	0x3feec88e	1.8654954
13	0xbec2c4dd	-0.3804082
14	0xbf60192e	-0.8753842
15	0xc03c18e5	-2.9390194
16	0xc02c12f0	-2.6886559
17	0x3ffffff0	1.9999981
18	0x3fa19ce4	1.2626004
19	0x403ac1be	2.918075
20	0xbf7ffffa	-0.99999964
21	0xbfdded04	-1.7337956
22	0x40bd21c6	5.9103727
23	0xbf7ffffe	-0.9999999
24	0x402d355a	2.7063813
25	0x40fcac7e	7.896056
26	0xbf78586e	-0.97009933
27	0xbeec2403	-0.46121225
28	0xc0dd95ce	-6.9245367
29	0x40000002	2.0000005
30	0xc03e4ee9	-2.9735663
31	0xbfcc5051	-1.5962011
32	0xbf800001	-1.0000001
33	0xc0025a8b	-2.0367763
34	0xc1221f94	-10.1327095
35	0x40000002	2.0000005
36	0xc01e7563	-2.4759147
37	0x4019cd2c	2.4031477
38	0xbf800001	-1.0000001
39	0xbf190748	-0.59776735
40	0x410cb052	8.793047
41	0xbf7ffffe	-0.9999999
42	0x403d1405	2.954347
43	0x3ff80185	1.9375464
44	0xbf2cf252	-0.6755725
45	0xc0664816	-3.5981498
46	0xc0b02614	-5.504648
47	0x3fc55559	1.5416671
48	0x40459756	3.0873618
49	0x409d1ced	4.909781
50	0xbf1e79ea	-0.61904776
51	0x3fdaacd0	1.7083988
52	0xc01e4094	-2.4726915
53	0x33400000	4.4703484e-08
54	0x3f7bf66d	0.9842289
55	0x3ec6828b	0.3877147
56	0x40000001	2.0000002
57	0x3eafa6fa	0.3430708
58	0xc053811d	-3.3047554
59	0x40000001	2.0000002

linear.weight f4 [1, 20]
0	0x3e1986ae	0.14992782
1	0xbed8d3b8	-0.4234903
2	0x3efa6fdf	0.48913476
3	0xbf76a978	-0.9635234
4	0xbf6e31f7	-0.9304499
5	0x3f95fb26	1.171727
6	0xbefbddab	-0.49192557
7	0xbf89579b	-1.072986
8	0x3f81d91b	1.014438
9	0x3fae2d55	1.3607584
10	0xc03c2a06	-2.940065
11	0xbe2bb423	-0.16767935
12	0xbfbc4d44	-1.471108
13	0xbed56795	-0.4168059
14	0x3e42484c	0.18972892
15	0xbf6a7aef	-0.9159383
16	0x3f6a12e7	0.9143509
17	0xbeb5c56a	-0.35502177
18	0x4042d411	3.0441935
19	0x4021550e	2.5208163
