os-elm/trained_elm.pth (torch, 2501 bytes, 3 tensors)

input_weights f4 [3, 20]
0	0x3de595c3	0.112102054
1	0xbc83408f	-0.016021995
2	0xbd80183f	-0.062546246
3	0xbd8d4d1d	-0.06899474
4	0xbe1f0de6	-0.15532646
5	0x3dcade23	0.099056505
6	0x3cd95b1b	0.0265327
7	0xbd6c4278	-0.057680577
8	0xbe06dfc6	-0.131713
9	0xbe1acda3	-0.15117507
10	0xbe05fbf3	-0.13084392
11	0xbd66665a	-0.056249954
12	0x3c35cdd6	0.011096438
13	0x3d9a403c	0.07531783
14	0x3d13f639	0.036123488
15	0xbd1ad781	-0.037803177
16	0xbde678b2	-0.112534896
17	0x3d97f108	0.0741902
18	0x3d993efb	0.07482716
19	0x3d6ad4aa	0.05733172
20	0x3db417d7	0.087936096
21	0xbd70d4e7	-0.05879679
22	0xbc9dc9cf	-0.019261269
23	0xbe5f4483	-0.21803479
24	0xbd9a236b	-0.07526287
25	0x3e224ed1	0.15850379
26	0xbd87908a	-0.066193655
27	0x3dcb3666	0.09922485
28	0x3d7f0be8	0.062267214
29	0xbd25b9ac	-0.040460274
30	0xbd9e7439	-0.077370115
31	0x3dc1dd42	0.0946603
32	0x3e1305bd	0.14357658
33	0xbde4cd2a	-0.111719444
34	0xbc4d38eb	-0.012525777
35	0xbdca2d2a	-0.098718956
36	0xbd2ac1cf	-0.041688737
37	0x3c05b934	0.008161832
38	0xbe80fb93	-0.25191936
39	0x3d491d43	0.04910017
40	0x3d6c54dd	0.05769812
41	0x3e08356b	0.13301627
42	0x3d332749	0.043738637
43	0x3d64b665	0.055838007
44	0x3deb193a	0.11479421
45	0x3e13a2fa	0.1441764
46	0x3c9dff93	0.019286906
47	0x3da12c2b	0.078697525
48	0xbe0bc607	-0.1364976
49	0xbd80806b	-0.06274494
50	0xbcfe482f	-0.03104028
51	0x3d8bed1f	0.06832337
52	0x3de4086a	0.11134417
53	0xbd7e2575	-0.06204744
54	0x3e05e773	0.13076572
55	0xbdb6dde7	-0.08929043
56	0xbe5237c0	-0.2052908
57	0x3d9bdd3b	0.07610556
58	0xbd2709e6	-0.040780924
59	0xbdbc7882	-0.092026725

biases f4 [20]
0	0xbceb4f60	-0.028724372
1	0xbc721d33	-0.014777469
2	0xbda62260	-0.08112025
3	0x3ddf3762	0.10899235
4	0x3d1e1cd3	0.038601708
5	0xbdcee81d	-0.10102866
6	0x3c4c5897	0.012472293
7	0xbe8ba5a8	-0.27274823
8	0x3b2b5692	0.002614413
9	0x3d1a407b	0.03765915
10	0xbc909831	-0.017650696
11	0xbcf978a2	-0.03045303
12	0x3d2a9eb7	0.04165527
13	0xbd09dfe7	-0.033660796
14	0x3d07d3af	0.03316086
15	0xbdce63fd	-0.10077665
16	0xbdc3f1a5	-0.095675744
17	0x3deb1e92	0.1148044
18	0x3d8c3476	0.06845944
19	0x3cd6163f	0.026133655

output_weights f4 [20, 1]
0	0x404e3490	3.2219582
1	0xc0707100	-3.756897
2	0xc0d86f20	-6.763565
3	0xbca91000	-0.020637512
4	0xbecefa80	-0.4042549
5	0xbe46f7c0	-0.19430447
6	0x40579d20	3.3689651
7	0x3f1e0230	0.6172209
8	0x3e7af700	0.24508286
9	0xbf803f00	-1.0019226
10	0x406f6798	3.7406979
11	0xbf232700	-0.63731384
12	0xbf8675d0	-1.0504704
13	0xbeaeb040	-0.34118843
14	0x409e70d8	4.951275
15	0xc039e440	-2.9045563
16	0x3fb3ba48	1.4041224
17	0x409c2d08	4.880497
18	0xbd06c390	-0.032901347
19	0xc0b816f0	-5.7528
