elm/trained_elm.pth (torch, 2501 bytes, 3 tensors)

input_weights f4 [3, 20]
0.04046291 -0.021929605 -0.055985887 0.08259174 0.01920878 -0.026965434 0.055475052 -0.11276331
0.17189516 0.05944521 -0.018704223 0.04176935 -0.09748579 0.18716872 0.13977666 0.0038375654
-0.14450662 0.06515881 0.02118123 -0.103249036 0.10336242 0.10530932 0.13231401 0.19740231
-0.07424991 -0.16118686 -0.08814428 -0.04448718 -0.06930429 0.081656486 0.06974867 -0.061000478
-0.081031226 0.22625938 -0.07483324 -0.096110165 -0.16625625 0.0033528402 0.16058347 -0.014616059
-0.061747503 -0.0013240956 -0.039956205 0.05664813 0.02674872 -0.069748126 0.028798336 -0.0077937725
0.052558172 0.08268946 0.06864478 0.11882055 -0.07983163 0.03229595 -0.05903951 0.055512723
0.05638829 0.054840524 0.055206884 -0.039976846
00000000: 70bc 253d b7a5 b3bc 7551 65bd dc25 a93d
00000010: bb5b 9d3c 9de6 dcbc cf39 633d 73f0 e6bd
00000020: 4905 303e d27c 733d 9939 99bc 5716 2b3d
00000030: a1a6 c7bd 28a9 3f3e 9d21 0f3e aa7f 7b3b
00000040: 8bf9 13be fb71 853d 4284 ad3c 3b74 d3bd
00000050: adaf d33d 6aac d73d 537d 073e d523 4a3e
00000060: 5610 98bd 2b0e 25be fd84 b4bd 3038 36bd
00000070: 68ef 8dbd 843b a73d 64d8 8e3d a3db 79bd
00000080: b3f3 a5bd 8ab0 673e 2b42 99bd 68d5 c4bd
00000090: 143f 2abe 53bb 5b3b fe6f 243e 3278 6fbc
000000a0: f3ea 7cbd 478d adba 1ea9 23bd df07 683d
000000b0: 2220 db3c 1bd8 8ebd 7dea eb3c e762 ffbb
000000c0: 3d47 573d 1759 a93d a295 8c3d 3058 f33d
000000d0: c47e a3bd c248 043d 6ad3 71bd 4f61 633d
000000e0: 68f7 663d 75a0 603d 9d20 623d c3be 23bd

biases f4 [20]
-0.16331019 -0.017970407 0.21832488 0.015883725 -0.04981239 -0.0047335317 0.06396132 -0.09337478
-0.087347314 -0.05159971 -0.061697822 -0.066894524 0.03867746 -0.021214655 -0.05039966 -0.11189882
0.08143003 0.09214174 -0.19528872 -0.062155563
00000000: c93a 27be ad36 93bc 8f90 5f3e 961e 823c
00000010: 1408 4cbd be1b 9bbb 27fe 823d 473b bfbd
00000020: 26e3 b2bd 385a 53bd dbb6 7cbd ffff 88bd
00000030: 426c 1e3d 5bca adbc e06f 4ebd 352b e5bd
00000040: cac4 a63d cfb4 bc3d c4f9 47be d596 7ebd

output_weights f4 [20, 1]
0.4668808 -5.572571 0.5882311 -0.09839344 1.4440346 0.1732502 -4.813919 1.8221245
0.08133316 10.63229 -3.5148296 5.4022446 6.25441 -0.04241121 -0.43431568 -3.3805335
-0.2325306 -0.51727295 -0.065639496 -8.119158
00000000: 000b ef3e 8052 b2c0 5096 163f 8082 c9bd
00000010: 20d6 b83f 8068 313e a00b 9ac0 603b e93f
00000020: 0092 a63d dc1d 2a41 f8f2 60c0 30df ac40
00000030: 2024 c840 60b7 2dbd a05e debe a95a 58c0
00000040: 801c 6ebe 006c 04bf 006e 86bd 12e8 01c1
