cffn/trained_cffn.pth (torch, 3473 bytes, 4 tensors)

hidden.weight f4 [20, 3]
00000000: 825f 523e 9506 683e bdc8 0f3f 0c57 1c3f
00000010: 6a38 f6be 510d 54bf 20c8 af3c ade2 213f
00000020: 7c50 53bc dfe5 cdbe 4ca9 78be 86d5 8e3d
00000030: 214c 98be 5ed7 30be 0ee0 aa3d 35c8 afbe
00000040: 97dd bbbc da3c f4be 26bf e93d c745 953e
00000050: 134d 15be 2908 e0bc 325f acbe 7766 ebbe
00000060: 6c45 953e 4145 e63e 8b3c 64be 0d72 fc3e
00000070: f268 413e cc7c ab3b b52a 95bd 69c6 cebe
00000080: 7f0e b93b bfd3 dabe 9401 ac3e 8100 143f
00000090: ca5a eebd c3ad d0be 5df1 833e 7f40 00bd
000000a0: a5f8 c63e ffba 0d3f 1382 823e 8027 c83e
000000b0: 2523 e53d e9fa 39bf 79b1 383e 35ca 34be
000000c0: c1bb e8bc 7ca2 88be 8cc2 dcbe 0117 cdbe
000000d0: 2211 05bf af9b 843d 550c d83e 9556 9b3c
000000e0: 30f5 073f 6be2 ae3e c61e 97bd 113f 0cbe
0.20544246 0.22658761 0.5616568 0.61070323 -0.48089916 -0.8283282 0.021457732 0.63236505
-0.012897607 -0.4021444 -0.24283332 0.0697432 -0.29745582 -0.17269656 0.08343516 -0.34332433
-0.02293281 -0.47702676 0.11413412 0.29154798 -0.14580183 -0.027347641 -0.33666378 -0.45976612
0.29154527 0.44974712 -0.2228872 0.49305764 0.1888769 0.005233383 -0.07283536 -0.4038575
0.00564748 -0.42739674 0.33594954 0.5781327 -0.116384104 -0.4075757 0.25770083 -0.03131151
0.38861576 0.5536346 0.25489864 0.39092636 0.11188344 -0.72648484 0.1803645 -0.17655261
-0.02840984 -0.26686466 -0.43117177 -0.40056613 -0.5197927 0.06475007 0.4219691 0.018962184
0.531085 0.34157118 -0.073789164 -0.13695933

hidden.bias f4 [20]
00000000: 647a 88be e3b0 5cbe bba9 66be 82a3 cd3e
00000010: 34a5 9abe aae7 85be cb93 443e fb40 7a3e
00000020: 1b45 a2be 7568 d13d b030 823e 4629 1a3e
00000030: eef2 3bbd ddc4 87bc 4c9f 03bf 00c1 b3be
00000040: 3fa6 19bd 1305 9a3e 9f74 aa3e 04a9 a03e
-0.26655877 -0.21551852 -0.22525685 0.4016381 -0.30204165 -0.26153308 0.19197004 0.2443885
-0.31693348 0.10225002 0.2542777 0.15054807 -0.045885973 -0.016573364 -0.5141494 -0.35108185
-0.03751206 0.30081996 0.332921 0.3137895

out_from_hidden.weight f4 [1, 20]
00000000: cc47 e0bc 9c5b f03d bf05 06be 75a1 c23d
00000010: 2347 8c3d 320e 1b3e 0338 53be 72cb ab3d
00000020: 84de 84be 0667 68bd 7b95 813e 279a 2cbe
00000030: 7681 873e 33f0 f2bd 07a6 95bd d187 763a
00000040: fe93 e73d b24f bc3d d0e9 07be 355d 543c
-0.027377985 0.11736223 -0.1308813 0.09503452 0.06849506 0.15142134 -0.20626836 0.083884135
-0.25951016 -0.056738876 0.25309357 -0.1685568 0.26465958 -0.118622206 -0.07307058 0.00094043935
0.11307524 0.09194888 -0.13272786 0.012961675

out_from_source.weight f4 [1, 3]
00000000: d874 a03e 617e d23e a00a b33e
0.31339145 0.41112044 0.34969044
